{"format": "layers-model", "generatedBy": "keras v2.18.0", "convertedBy": "TensorFlow.js Converter v4.22.0", "modelTopology": {"keras_version": "2.18.0", "backend": "tensorflow", "model_config": {"class_name": "Functional", "config": {"name": "model", "trainable": true, "layers": [{"class_name": "InputLayer", "config": {"batch_input_shape": [null, 299, 299, 3], "dtype": "float32", "sparse": false, "ragged": false, "name": "input_1"}, "name": "input_1", "inbound_nodes": []}, {"class_name": "Conv2D", "config": {"name": "conv2d", "trainable": false, "dtype": "float32", "filters": 32, "kernel_size": [3, 3], "strides": [2, 2], "padding": "valid", "data_format": "channels_last", "dilation_rate": [1, 1], "groups": 1, "activation": "linear", "use_bias": false, "kernel_initializer": {"module": "keras.initializers", "class_name": "GlorotUniform", "config": {"seed": null}, "registered_name": null}, "bias_initializer": {"module": "keras.initializers", "class_name": "Zeros", "config": {}, "registered_name": null}, "kernel_regularizer": null, "bias_regularizer": null, "activity_regularizer": null, "kernel_constraint": null, "bias_constraint": null}, "name": "conv2d", "inbound_nodes": [[["input_1", 0, 0, {}]]]}, {"class_name": "BatchNormalization", "config": {"name": "batch_normalization", "trainable": false, "dtype": "float32", "axis": [3], "momentum": 0.99, "epsilon": 0.001, "center": true, "scale": false, "beta_initializer": {"module": "keras.initializers", "class_name": "Zeros", "config": {}, "registered_name": null}, "gamma_initializer": {"module": "keras.initializers", "class_name": "Ones", "config": {}, "registered_name": null}, "moving_mean_initializer": {"module": "keras.initializers", "class_name": "Zeros", "config": {}, "registered_name": null}, "moving_variance_initializer": {"module": "keras.initializers", "class_name": "Ones", "config": {}, "registered_name": null}, "beta_regularizer": null, "gamma_regularizer": null, "beta_constraint": null, "gamma_constraint": null}, "name": "batch_normalization", "inbound_nodes": [[["conv2d", 0, 0, {}]]]}, {"class_name": "Activation", "config": {"name": "activation", "trainable": false, "dtype": "float32", "activation": "relu"}, "name": "activation", "inbound_nodes": [[["batch_normalization", 0, 0, {}]]]}, {"class_name": "Conv2D", "config": {"name": "conv2d_1", "trainable": false, "dtype": "float32", "filters": 32, "kernel_size": [3, 3], "strides": [1, 1], "padding": "valid", "data_format": "channels_last", "dilation_rate": [1, 1], "groups": 1, "activation": "linear", "use_bias": false, "kernel_initializer": {"module": "keras.initializers", "class_name": "GlorotUniform", "config": {"seed": null}, "registered_name": null}, "bias_initializer": {"module": "keras.initializers", "class_name": "Zeros", "config": {}, "registered_name": null}, "kernel_regularizer": null, "bias_regularizer": null, "activity_regularizer": null, "kernel_constraint": null, "bias_constraint": null}, "name": "conv2d_1", "inbound_nodes": [[["activation", 0, 0, {}]]]}, {"class_name": "BatchNormalization", "config": {"name": "batch_normalization_1", "trainable": false, "dtype": "float32", "axis": [3], "momentum": 0.99, "epsilon": 0.001, "center": true, "scale": false, "beta_initializer": {"module": "keras.initializers", "class_name": "Zeros", "config": {}, "registered_name": null}, "gamma_initializer": {"module": "keras.initializers", "class_name": "Ones", "config": {}, "registered_name": null}, "moving_mean_initializer": {"module": "keras.initializers", "class_name": "Zeros", "config": {}, "registered_name": null}, "moving_variance_initializer": {"module": "keras.initializers", "class_name": "Ones", "config": {}, "registered_name": null}, "beta_regularizer": null, "gamma_regularizer": null, "beta_constraint": null, "gamma_constraint": null}, "name": "batch_normalization_1", "inbound_nodes": [[["conv2d_1", 0, 0, {}]]]}, {"class_name": "Activation", "config": {"name": "activation_1", "trainable": false, "dtype": "float32", "activation": "relu"}, "name": "activation_1", "inbound_nodes": [[["batch_normalization_1", 0, 0, {}]]]}, {"class_name": "Conv2D", "config": {"name": "conv2d_2", "trainable": false, "dtype": "float32", "filters": 64, "kernel_size": [3, 3], "strides": [1, 1], "padding": "same", "data_format": "channels_last", "dilation_rate": [1, 1], "groups": 1, "activation": "linear", "use_bias": false, "kernel_initializer": {"module": "keras.initializers", "class_name": "GlorotUniform", "config": {"seed": null}, "registered_name": null}, "bias_initializer": {"module": "keras.initializers", "class_name": "Zeros", "config": {}, "registered_name": null}, "kernel_regularizer": null, "bias_regularizer": null, "activity_regularizer": null, "kernel_constraint": null, "bias_constraint": null}, "name": "conv2d_2", "inbound_nodes": [[["activation_1", 0, 0, {}]]]}, {"class_name": "BatchNormalization", "config": {"name": "batch_normalization_2", "trainable": false, "dtype": "float32", "axis": [3], "momentum": 0.99, "epsilon": 0.001, "center": true, "scale": false, "beta_initializer": {"module": "keras.initializers", "class_name": "Zeros", "config": {}, "registered_name": null}, "gamma_initializer": {"module": "keras.initializers", "class_name": "Ones", "config": {}, "registered_name": null}, "moving_mean_initializer": {"module": "keras.initializers", "class_name": "Zeros", "config": {}, "registered_name": null}, "moving_variance_initializer": {"module": "keras.initializers", "class_name": "Ones", "config": {}, "registered_name": null}, "beta_regularizer": null, "gamma_regularizer": null, "beta_constraint": null, "gamma_constraint": null}, "name": "batch_normalization_2", "inbound_nodes": [[["conv2d_2", 0, 0, {}]]]}, {"class_name": "Activation", "config": {"name": "activation_2", "trainable": false, "dtype": "float32", "activation": "relu"}, "name": "activation_2", "inbound_nodes": [[["batch_normalization_2", 0, 0, {}]]]}, {"class_name": "MaxPooling2D", "config": {"name": "max_pooling2d", "trainable": false, "dtype": "float32", "pool_size": [3, 3], "padding": "valid", "strides": [2, 2], "data_format": "channels_last"}, "name": "max_pooling2d", "inbound_nodes": [[["activation_2", 0, 0, {}]]]}, {"class_name": "Conv2D", "config": {"name": "conv2d_3", "trainable": false, "dtype": "float32", "filters": 80, "kernel_size": [1, 1], "strides": [1, 1], "padding": "valid", "data_format": "channels_last", "dilation_rate": [1, 1], "groups": 1, "activation": "linear", "use_bias": false, "kernel_initializer": {"module": "keras.initializers", "class_name": "GlorotUniform", "config": {"seed": null}, "registered_name": null}, "bias_initializer": {"module": "keras.initializers", "class_name": "Zeros", "config": {}, "registered_name": null}, "kernel_regularizer": null, "bias_regularizer": null, "activity_regularizer": null, "kernel_constraint": null, "bias_constraint": null}, "name": "conv2d_3", "inbound_nodes": [[["max_pooling2d", 0, 0, {}]]]}, {"class_name": "BatchNormalization", "config": {"name": "batch_normalization_3", "trainable": false, "dtype": "float32", "axis": [3], "momentum": 0.99, "epsilon": 0.001, "center": true, "scale": false, "beta_initializer": {"module": "keras.initializers", "class_name": "Zeros", "config": {}, "registered_name": null}, "gamma_initializer": {"module": "keras.initializers", "class_name": "Ones", "config": {}, "registered_name": null}, "moving_mean_initializer": {"module": "keras.initializers", "class_name": "Zeros", "config": {}, "registered_name": null}, "moving_variance_initializer": {"module": "keras.initializers", "class_name": "Ones", "config": {}, "registered_name": null}, "beta_regularizer": null, "gamma_regularizer": null, "beta_constraint": null, "gamma_constraint": null}, "name": "batch_normalization_3", "inbound_nodes": [[["conv2d_3", 0, 0, {}]]]}, {"class_name": "Activation", "config": {"name": "activation_3", "trainable": false, "dtype": "float32", "activation": "relu"}, "name": "activation_3", "inbound_nodes": [[["batch_normalization_3", 0, 0, {}]]]}, {"class_name": "Conv2D", "config": {"name": "conv2d_4", "trainable": false, "dtype": "float32", "filters": 192, "kernel_size": [3, 3], "strides": [1, 1], "padding": "valid", "data_format": "channels_last", "dilation_rate": [1, 1], "groups": 1, "activation": "linear", "use_bias": false, "kernel_initializer": {"module": "keras.initializers", "class_name": "GlorotUniform", "config": {"seed": null}, "registered_name": null}, "bias_initializer": {"module": "keras.initializers", "class_name": "Zeros", "config": {}, "registered_name": null}, "kernel_regularizer": null, "bias_regularizer": null, "activity_regularizer": null, "kernel_constraint": null, "bias_constraint": null}, "name": "conv2d_4", "inbound_nodes": [[["activation_3", 0, 0, {}]]]}, {"class_name": "BatchNormalization", "config": {"name": "batch_normalization_4", "trainable": false, "dtype": "float32", "axis": [3], "momentum": 0.99, "epsilon": 0.001, "center": true, "scale": false, "beta_initializer": {"module": "keras.initializers", "class_name": "Zeros", "config": {}, "registered_name": null}, "gamma_initializer": {"module": "keras.initializers", "class_name": "Ones", "config": {}, "registered_name": null}, "moving_mean_initializer": {"module": "keras.initializers", "class_name": "Zeros", "config": {}, "registered_name": null}, "moving_variance_initializer": {"module": "keras.initializers", "class_name": "Ones", "config": {}, "registered_name": null}, "beta_regularizer": null, "gamma_regularizer": null, "beta_constraint": null, "gamma_constraint": null}, "name": "batch_normalization_4", "inbound_nodes": [[["conv2d_4", 0, 0, {}]]]}, {"class_name": "Activation", "config": {"name": "activation_4", "trainable": false, "dtype": "float32", "activation": "relu"}, "name": "activation_4", "inbound_nodes": [[["batch_normalization_4", 0, 0, {}]]]}, {"class_name": "MaxPooling2D", "config": {"name": "max_pooling2d_1", "trainable": false, "dtype": "float32", "pool_size": [3, 3], "padding": "valid", "strides": [2, 2], "data_format": "channels_last"}, "name": "max_pooling2d_1", "inbound_nodes": [[["activation_4", 0, 0, {}]]]}, {"class_name": "Conv2D", "config": {"name": "conv2d_8", "trainable": false, "dtype": "float32", "filters": 64, "kernel_size": [1, 1], "strides": [1, 1], "padding": "same", "data_format": "channels_last", "dilation_rate": [1, 1], "groups": 1, "activation": "linear", "use_bias": false, "kernel_initializer": {"module": "keras.initializers", "class_name": "GlorotUniform", "config": {"seed": null}, "registered_name": null}, "bias_initializer": {"module": "keras.initializers", "class_name": "Zeros", "config": {}, "registered_name": null}, "kernel_regularizer": null, "bias_regularizer": null, "activity_regularizer": null, "kernel_constraint": null, "bias_constraint": null}, "name": "conv2d_8", "inbound_nodes": [[["max_pooling2d_1", 0, 0, {}]]]}, {"class_name": "BatchNormalization", "config": {"name": "batch_normalization_8", "trainable": false, "dtype": "float32", "axis": [3], "momentum": 0.99, "epsilon": 0.001, "center": true, "scale": false, "beta_initializer": {"module": "keras.initializers", "class_name": "Zeros", "config": {}, "registered_name": null}, "gamma_initializer": {"module": "keras.initializers", "class_name": "Ones", "config": {}, "registered_name": null}, "moving_mean_initializer": {"module": "keras.initializers", "class_name": "Zeros", "config": {}, "registered_name": null}, "moving_variance_initializer": {"module": "keras.initializers", "class_name": "Ones", "config": {}, "registered_name": null}, "beta_regularizer": null, "gamma_regularizer": null, "beta_constraint": null, "gamma_constraint": null}, "name": "batch_normalization_8", "inbound_nodes": [[["conv2d_8", 0, 0, {}]]]}, {"class_name": "Activation", "config": {"name": "activation_8", "trainable": false, "dtype": "float32", "activation": "relu"}, "name": "activation_8", "inbound_nodes": [[["batch_normalization_8", 0, 0, {}]]]}, {"class_name": "Conv2D", "config": {"name": "conv2d_6", "trainable": false, "dtype": "float32", "filters": 48, "kernel_size": [1, 1], "strides": [1, 1], "padding": "same", "data_format": "channels_last", "dilation_rate": [1, 1], "groups": 1, "activation": "linear", "use_bias": false, "kernel_initializer": {"module": "keras.initializers", "class_name": "GlorotUniform", "config": {"seed": null}, "registered_name": null}, "bias_initializer": {"module": "keras.initializers", "class_name": "Zeros", "config": {}, "registered_name": null}, "kernel_regularizer": null, "bias_regularizer": null, "activity_regularizer": null, "kernel_constraint": null, "bias_constraint": null}, "name": "conv2d_6", "inbound_nodes": [[["max_pooling2d_1", 0, 0, {}]]]}, {"class_name": "Conv2D", "config": {"name": "conv2d_9", "trainable": false, "dtype": "float32", "filters": 96, "kernel_size": [3, 3], "strides": [1, 1], "padding": "same", "data_format": "channels_last", "dilation_rate": [1, 1], "groups": 1, "activation": "linear", "use_bias": false, "kernel_initializer": {"module": "keras.initializers", "class_name": "GlorotUniform", "config": {"seed": null}, "registered_name": null}, "bias_initializer": {"module": "keras.initializers", "class_name": "Zeros", "config": {}, "registered_name": null}, "kernel_regularizer": null, "bias_regularizer": null, "activity_regularizer": null, "kernel_constraint": null, "bias_constraint": null}, "name": "conv2d_9", "inbound_nodes": [[["activation_8", 0, 0, {}]]]}, {"class_name": "BatchNormalization", "config": {"name": "batch_normalization_6", "trainable": false, "dtype": "float32", "axis": [3], "momentum": 0.99, "epsilon": 0.001, "center": true, "scale": false, "beta_initializer": {"module": "keras.initializers", "class_name": "Zeros", "config": {}, "registered_name": null}, "gamma_initializer": {"module": "keras.initializers", "class_name": "Ones", "config": {}, "registered_name": null}, "moving_mean_initializer": {"module": "keras.initializers", "class_name": "Zeros", "config": {}, "registered_name": null}, "moving_variance_initializer": {"module": "keras.initializers", "class_name": "Ones", "config": {}, "registered_name": null}, "beta_regularizer": null, "gamma_regularizer": null, "beta_constraint": null, "gamma_constraint": null}, "name": "batch_normalization_6", "inbound_nodes": [[["conv2d_6", 0, 0, {}]]]}, {"class_name": "BatchNormalization", "config": {"name": "batch_normalization_9", "trainable": false, "dtype": "float32", "axis": [3], "momentum": 0.99, "epsilon": 0.001, "center": true, "scale": false, "beta_initializer": {"module": "keras.initializers", "class_name": "Zeros", "config": {}, "registered_name": null}, "gamma_initializer": {"module": "keras.initializers", "class_name": "Ones", "config": {}, "registered_name": null}, "moving_mean_initializer": {"module": "keras.initializers", "class_name": "Zeros", "config": {}, "registered_name": null}, "moving_variance_initializer": {"module": "keras.initializers", "class_name": "Ones", "config": {}, "registered_name": null}, "beta_regularizer": null, "gamma_regularizer": null, "beta_constraint": null, "gamma_constraint": null}, "name": "batch_normalization_9", "inbound_nodes": [[["conv2d_9", 0, 0, {}]]]}, {"class_name": "Activation", "config": {"name": "activation_6", "trainable": false, "dtype": "float32", "activation": "relu"}, "name": "activation_6", "inbound_nodes": [[["batch_normalization_6", 0, 0, {}]]]}, {"class_name": "Activation", "config": {"name": "activation_9", "trainable": false, "dtype": "float32", "activation": "relu"}, "name": "activation_9", "inbound_nodes": [[["batch_normalization_9", 0, 0, {}]]]}, {"class_name": "AveragePooling2D", "config": {"name": "average_pooling2d", "trainable": false, "dtype": "float32", "pool_size": [3, 3], "padding": "same", "strides": [1, 1], "data_format": "channels_last"}, "name": "average_pooling2d", "inbound_nodes": [[["max_pooling2d_1", 0, 0, {}]]]}, {"class_name": "Conv2D", "config": {"name": "conv2d_5", "trainable": false, "dtype": "float32", "filters": 64, "kernel_size": [1, 1], "strides": [1, 1], "padding": "same", "data_format": "channels_last", "dilation_rate": [1, 1], "groups": 1, "activation": "linear", "use_bias": false, "kernel_initializer": {"module": "keras.initializers", "class_name": "GlorotUniform", "config": {"seed": null}, "registered_name": null}, "bias_initializer": {"module": "keras.initializers", "class_name": "Zeros", "config": {}, "registered_name": null}, "kernel_regularizer": null, "bias_regularizer": null, "activity_regularizer": null, "kernel_constraint": null, "bias_constraint": null}, "name": "conv2d_5", "inbound_nodes": [[["max_pooling2d_1", 0, 0, {}]]]}, {"class_name": "Conv2D", "config": {"name": "conv2d_7", "trainable": false, "dtype": "float32", "filters": 64, "kernel_size": [5, 5], "strides": [1, 1], "padding": "same", "data_format": "channels_last", "dilation_rate": [1, 1], "groups": 1, "activation": "linear", "use_bias": false, "kernel_initializer": {"module": "keras.initializers", "class_name": "GlorotUniform", "config": {"seed": null}, "registered_name": null}, "bias_initializer": {"module": "keras.initializers", "class_name": "Zeros", "config": {}, "registered_name": null}, "kernel_regularizer": null, "bias_regularizer": null, "activity_regularizer": null, "kernel_constraint": null, "bias_constraint": null}, "name": "conv2d_7", "inbound_nodes": [[["activation_6", 0, 0, {}]]]}, {"class_name": "Conv2D", "config": {"name": "conv2d_10", "trainable": false, "dtype": "float32", "filters": 96, "kernel_size": [3, 3], "strides": [1, 1], "padding": "same", "data_format": "channels_last", "dilation_rate": [1, 1], "groups": 1, "activation": "linear", "use_bias": false, "kernel_initializer": {"module": "keras.initializers", "class_name": "GlorotUniform", "config": {"seed": null}, "registered_name": null}, "bias_initializer": {"module": "keras.initializers", "class_name": "Zeros", "config": {}, "registered_name": null}, "kernel_regularizer": null, "bias_regularizer": null, "activity_regularizer": null, "kernel_constraint": null, "bias_constraint": null}, "name": "conv2d_10", "inbound_nodes": [[["activation_9", 0, 0, {}]]]}, {"class_name": "Conv2D", "config": {"name": "conv2d_11", "trainable": false, "dtype": "float32", "filters": 32, "kernel_size": [1, 1], "strides": [1, 1], "padding": "same", "data_format": "channels_last", "dilation_rate": [1, 1], "groups": 1, "activation": "linear", "use_bias": false, "kernel_initializer": {"module": "keras.initializers", "class_name": "GlorotUniform", "config": {"seed": null}, "registered_name": null}, "bias_initializer": {"module": "keras.initializers", "class_name": "Zeros", "config": {}, "registered_name": null}, "kernel_regularizer": null, "bias_regularizer": null, "activity_regularizer": null, "kernel_constraint": null, "bias_constraint": null}, "name": "conv2d_11", "inbound_nodes": [[["average_pooling2d", 0, 0, {}]]]}, {"class_name": "BatchNormalization", "config": {"name": "batch_normalization_5", "trainable": false, "dtype": "float32", "axis": [3], "momentum": 0.99, "epsilon": 0.001, "center": true, "scale": false, "beta_initializer": {"module": "keras.initializers", "class_name": "Zeros", "config": {}, "registered_name": null}, "gamma_initializer": {"module": "keras.initializers", "class_name": "Ones", "config": {}, "registered_name": null}, "moving_mean_initializer": {"module": "keras.initializers", "class_name": "Zeros", "config": {}, "registered_name": null}, "moving_variance_initializer": {"module": "keras.initializers", "class_name": "Ones", "config": {}, "registered_name": null}, "beta_regularizer": null, "gamma_regularizer": null, "beta_constraint": null, "gamma_constraint": null}, "name": "batch_normalization_5", "inbound_nodes": [[["conv2d_5", 0, 0, {}]]]}, {"class_name": "BatchNormalization", "config": {"name": "batch_normalization_7", "trainable": false, "dtype": "float32", "axis": [3], "momentum": 0.99, "epsilon": 0.001, "center": true, "scale": false, "beta_initializer": {"module": "keras.initializers", "class_name": "Zeros", "config": {}, "registered_name": null}, "gamma_initializer": {"module": "keras.initializers", "class_name": "Ones", "config": {}, "registered_name": null}, "moving_mean_initializer": {"module": "keras.initializers", "class_name": "Zeros", "config": {}, "registered_name": null}, "moving_variance_initializer": {"module": "keras.initializers", "class_name": "Ones", "config": {}, "registered_name": null}, "beta_regularizer": null, "gamma_regularizer": null, "beta_constraint": null, "gamma_constraint": null}, "name": "batch_normalization_7", "inbound_nodes": [[["conv2d_7", 0, 0, {}]]]}, {"class_name": "BatchNormalization", "config": {"name": "batch_normalization_10", "trainable": false, "dtype": "float32", "axis": [3], "momentum": 0.99, "epsilon": 0.001, "center": true, "scale": false, "beta_initializer": {"module": "keras.initializers", "class_name": "Zeros", "config": {}, "registered_name": null}, "gamma_initializer": {"module": "keras.initializers", "class_name": "Ones", "config": {}, "registered_name": null}, "moving_mean_initializer": {"module": "keras.initializers", "class_name": "Zeros", "config": {}, "registered_name": null}, "moving_variance_initializer": {"module": "keras.initializers", "class_name": "Ones", "config": {}, "registered_name": null}, "beta_regularizer": null, "gamma_regularizer": null, "beta_constraint": null, "gamma_constraint": null}, "name": "batch_normalization_10", "inbound_nodes": [[["conv2d_10", 0, 0, {}]]]}, {"class_name": "BatchNormalization", "config": {"name": "batch_normalization_11", "trainable": false, "dtype": "float32", "axis": [3], "momentum": 0.99, "epsilon": 0.001, "center": true, "scale": false, "beta_initializer": {"module": "keras.initializers", "class_name": "Zeros", "config": {}, "registered_name": null}, "gamma_initializer": {"module": "keras.initializers", "class_name": "Ones", "config": {}, "registered_name": null}, "moving_mean_initializer": {"module": "keras.initializers", "class_name": "Zeros", "config": {}, "registered_name": null}, "moving_variance_initializer": {"module": "keras.initializers", "class_name": "Ones", "config": {}, "registered_name": null}, "beta_regularizer": null, "gamma_regularizer": null, "beta_constraint": null, "gamma_constraint": null}, "name": "batch_normalization_11", "inbound_nodes": [[["conv2d_11", 0, 0, {}]]]}, {"class_name": "Activation", "config": {"name": "activation_5", "trainable": false, "dtype": "float32", "activation": "relu"}, "name": "activation_5", "inbound_nodes": [[["batch_normalization_5", 0, 0, {}]]]}, {"class_name": "Activation", "config": {"name": "activation_7", "trainable": false, "dtype": "float32", "activation": "relu"}, "name": "activation_7", "inbound_nodes": [[["batch_normalization_7", 0, 0, {}]]]}, {"class_name": "Activation", "config": {"name": "activation_10", "trainable": false, "dtype": "float32", "activation": "relu"}, "name": "activation_10", "inbound_nodes": [[["batch_normalization_10", 0, 0, {}]]]}, {"class_name": "Activation", "config": {"name": "activation_11", "trainable": false, "dtype": "float32", "activation": "relu"}, "name": "activation_11", "inbound_nodes": [[["batch_normalization_11", 0, 0, {}]]]}, {"class_name": "Concatenate", "config": {"name": "mixed0", "trainable": false, "dtype": "float32", "axis": 3}, "name": "mixed0", "inbound_nodes": [[["activation_5", 0, 0, {}], ["activation_7", 0, 0, {}], ["activation_10", 0, 0, {}], ["activation_11", 0, 0, {}]]]}, {"class_name": "Conv2D", "config": {"name": "conv2d_15", "trainable": false, "dtype": "float32", "filters": 64, "kernel_size": [1, 1], "strides": [1, 1], "padding": "same", "data_format": "channels_last", "dilation_rate": [1, 1], "groups": 1, "activation": "linear", "use_bias": false, "kernel_initializer": {"module": "keras.initializers", "class_name": "GlorotUniform", "config": {"seed": null}, "registered_name": null}, "bias_initializer": {"module": "keras.initializers", "class_name": "Zeros", "config": {}, "registered_name": null}, "kernel_regularizer": null, "bias_regularizer": null, "activity_regularizer": null, "kernel_constraint": null, "bias_constraint": null}, "name": "conv2d_15", "inbound_nodes": [[["mixed0", 0, 0, {}]]]}, {"class_name": "BatchNormalization", "config": {"name": "batch_normalization_15", "trainable": false, "dtype": "float32", "axis": [3], "momentum": 0.99, "epsilon": 0.001, "center": true, "scale": false, "beta_initializer": {"module": "keras.initializers", "class_name": "Zeros", "config": {}, "registered_name": null}, "gamma_initializer": {"module": "keras.initializers", "class_name": "Ones", "config": {}, "registered_name": null}, "moving_mean_initializer": {"module": "keras.initializers", "class_name": "Zeros", "config": {}, "registered_name": null}, "moving_variance_initializer": {"module": "keras.initializers", "class_name": "Ones", "config": {}, "registered_name": null}, "beta_regularizer": null, "gamma_regularizer": null, "beta_constraint": null, "gamma_constraint": null}, "name": "batch_normalization_15", "inbound_nodes": [[["conv2d_15", 0, 0, {}]]]}, {"class_name": "Activation", "config": {"name": "activation_15", "trainable": false, "dtype": "float32", "activation": "relu"}, "name": "activation_15", "inbound_nodes": [[["batch_normalization_15", 0, 0, {}]]]}, {"class_name": "Conv2D", "config": {"name": "conv2d_13", "trainable": false, "dtype": "float32", "filters": 48, "kernel_size": [1, 1], "strides": [1, 1], "padding": "same", "data_format": "channels_last", "dilation_rate": [1, 1], "groups": 1, "activation": "linear", "use_bias": false, "kernel_initializer": {"module": "keras.initializers", "class_name": "GlorotUniform", "config": {"seed": null}, "registered_name": null}, "bias_initializer": {"module": "keras.initializers", "class_name": "Zeros", "config": {}, "registered_name": null}, "kernel_regularizer": null, "bias_regularizer": null, "activity_regularizer": null, "kernel_constraint": null, "bias_constraint": null}, "name": "conv2d_13", "inbound_nodes": [[["mixed0", 0, 0, {}]]]}, {"class_name": "Conv2D", "config": {"name": "conv2d_16", "trainable": false, "dtype": "float32", "filters": 96, "kernel_size": [3, 3], "strides": [1, 1], "padding": "same", "data_format": "channels_last", "dilation_rate": [1, 1], "groups": 1, "activation": "linear", "use_bias": false, "kernel_initializer": {"module": "keras.initializers", "class_name": "GlorotUniform", "config": {"seed": null}, "registered_name": null}, "bias_initializer": {"module": "keras.initializers", "class_name": "Zeros", "config": {}, "registered_name": null}, "kernel_regularizer": null, "bias_regularizer": null, "activity_regularizer": null, "kernel_constraint": null, "bias_constraint": null}, "name": "conv2d_16", "inbound_nodes": [[["activation_15", 0, 0, {}]]]}, {"class_name": "BatchNormalization", "config": {"name": "batch_normalization_13", "trainable": false, "dtype": "float32", "axis": [3], "momentum": 0.99, "epsilon": 0.001, "center": true, "scale": false, "beta_initializer": {"module": "keras.initializers", "class_name": "Zeros", "config": {}, "registered_name": null}, "gamma_initializer": {"module": "keras.initializers", "class_name": "Ones", "config": {}, "registered_name": null}, "moving_mean_initializer": {"module": "keras.initializers", "class_name": "Zeros", "config": {}, "registered_name": null}, "moving_variance_initializer": {"module": "keras.initializers", "class_name": "Ones", "config": {}, "registered_name": null}, "beta_regularizer": null, "gamma_regularizer": null, "beta_constraint": null, "gamma_constraint": null}, "name": "batch_normalization_13", "inbound_nodes": [[["conv2d_13", 0, 0, {}]]]}, {"class_name": "BatchNormalization", "config": {"name": "batch_normalization_16", "trainable": false, "dtype": "float32", "axis": [3], "momentum": 0.99, "epsilon": 0.001, "center": true, "scale": false, "beta_initializer": {"module": "keras.initializers", "class_name": "Zeros", "config": {}, "registered_name": null}, "gamma_initializer": {"module": "keras.initializers", "class_name": "Ones", "config": {}, "registered_name": null}, "moving_mean_initializer": {"module": "keras.initializers", "class_name": "Zeros", "config": {}, "registered_name": null}, "moving_variance_initializer": {"module": "keras.initializers", "class_name": "Ones", "config": {}, "registered_name": null}, "beta_regularizer": null, "gamma_regularizer": null, "beta_constraint": null, "gamma_constraint": null}, "name": "batch_normalization_16", "inbound_nodes": [[["conv2d_16", 0, 0, {}]]]}, {"class_name": "Activation", "config": {"name": "activation_13", "trainable": false, "dtype": "float32", "activation": "relu"}, "name": "activation_13", "inbound_nodes": [[["batch_normalization_13", 0, 0, {}]]]}, {"class_name": "Activation", "config": {"name": "activation_16", "trainable": false, "dtype": "float32", "activation": "relu"}, "name": "activation_16", "inbound_nodes": [[["batch_normalization_16", 0, 0, {}]]]}, {"class_name": "AveragePooling2D", "config": {"name": "average_pooling2d_1", "trainable": false, "dtype": "float32", "pool_size": [3, 3], "padding": "same", "strides": [1, 1], "data_format": "channels_last"}, "name": "average_pooling2d_1", "inbound_nodes": [[["mixed0", 0, 0, {}]]]}, {"class_name": "Conv2D", "config": {"name": "conv2d_12", "trainable": false, "dtype": "float32", "filters": 64, "kernel_size": [1, 1], "strides": [1, 1], "padding": "same", "data_format": "channels_last", "dilation_rate": [1, 1], "groups": 1, "activation": "linear", "use_bias": false, "kernel_initializer": {"module": "keras.initializers", "class_name": "GlorotUniform", "config": {"seed": null}, "registered_name": null}, "bias_initializer": {"module": "keras.initializers", "class_name": "Zeros", "config": {}, "registered_name": null}, "kernel_regularizer": null, "bias_regularizer": null, "activity_regularizer": null, "kernel_constraint": null, "bias_constraint": null}, "name": "conv2d_12", "inbound_nodes": [[["mixed0", 0, 0, {}]]]}, {"class_name": "Conv2D", "config": {"name": "conv2d_14", "trainable": false, "dtype": "float32", "filters": 64, "kernel_size": [5, 5], "strides": [1, 1], "padding": "same", "data_format": "channels_last", "dilation_rate": [1, 1], "groups": 1, "activation": "linear", "use_bias": false, "kernel_initializer": {"module": "keras.initializers", "class_name": "GlorotUniform", "config": {"seed": null}, "registered_name": null}, "bias_initializer": {"module": "keras.initializers", "class_name": "Zeros", "config": {}, "registered_name": null}, "kernel_regularizer": null, "bias_regularizer": null, "activity_regularizer": null, "kernel_constraint": null, "bias_constraint": null}, "name": "conv2d_14", "inbound_nodes": [[["activation_13", 0, 0, {}]]]}, {"class_name": "Conv2D", "config": {"name": "conv2d_17", "trainable": false, "dtype": "float32", "filters": 96, "kernel_size": [3, 3], "strides": [1, 1], "padding": "same", "data_format": "channels_last", "dilation_rate": [1, 1], "groups": 1, "activation": "linear", "use_bias": false, "kernel_initializer": {"module": "keras.initializers", "class_name": "GlorotUniform", "config": {"seed": null}, "registered_name": null}, "bias_initializer": {"module": "keras.initializers", "class_name": "Zeros", "config": {}, "registered_name": null}, "kernel_regularizer": null, "bias_regularizer": null, "activity_regularizer": null, "kernel_constraint": null, "bias_constraint": null}, "name": "conv2d_17", "inbound_nodes": [[["activation_16", 0, 0, {}]]]}, {"class_name": "Conv2D", "config": {"name": "conv2d_18", "trainable": false, "dtype": "float32", "filters": 64, "kernel_size": [1, 1], "strides": [1, 1], "padding": "same", "data_format": "channels_last", "dilation_rate": [1, 1], "groups": 1, "activation": "linear", "use_bias": false, "kernel_initializer": {"module": "keras.initializers", "class_name": "GlorotUniform", "config": {"seed": null}, "registered_name": null}, "bias_initializer": {"module": "keras.initializers", "class_name": "Zeros", "config": {}, "registered_name": null}, "kernel_regularizer": null, "bias_regularizer": null, "activity_regularizer": null, "kernel_constraint": null, "bias_constraint": null}, "name": "conv2d_18", "inbound_nodes": [[["average_pooling2d_1", 0, 0, {}]]]}, {"class_name": "BatchNormalization", "config": {"name": "batch_normalization_12", "trainable": false, "dtype": "float32", "axis": [3], "momentum": 0.99, "epsilon": 0.001, "center": true, "scale": false, "beta_initializer": {"module": "keras.initializers", "class_name": "Zeros", "config": {}, "registered_name": null}, "gamma_initializer": {"module": "keras.initializers", "class_name": "Ones", "config": {}, "registered_name": null}, "moving_mean_initializer": {"module": "keras.initializers", "class_name": "Zeros", "config": {}, "registered_name": null}, "moving_variance_initializer": {"module": "keras.initializers", "class_name": "Ones", "config": {}, "registered_name": null}, "beta_regularizer": null, "gamma_regularizer": null, "beta_constraint": null, "gamma_constraint": null}, "name": "batch_normalization_12", "inbound_nodes": [[["conv2d_12", 0, 0, {}]]]}, {"class_name": "BatchNormalization", "config": {"name": "batch_normalization_14", "trainable": false, "dtype": "float32", "axis": [3], "momentum": 0.99, "epsilon": 0.001, "center": true, "scale": false, "beta_initializer": {"module": "keras.initializers", "class_name": "Zeros", "config": {}, "registered_name": null}, "gamma_initializer": {"module": "keras.initializers", "class_name": "Ones", "config": {}, "registered_name": null}, "moving_mean_initializer": {"module": "keras.initializers", "class_name": "Zeros", "config": {}, "registered_name": null}, "moving_variance_initializer": {"module": "keras.initializers", "class_name": "Ones", "config": {}, "registered_name": null}, "beta_regularizer": null, "gamma_regularizer": null, "beta_constraint": null, "gamma_constraint": null}, "name": "batch_normalization_14", "inbound_nodes": [[["conv2d_14", 0, 0, {}]]]}, {"class_name": "BatchNormalization", "config": {"name": "batch_normalization_17", "trainable": false, "dtype": "float32", "axis": [3], "momentum": 0.99, "epsilon": 0.001, "center": true, "scale": false, "beta_initializer": {"module": "keras.initializers", "class_name": "Zeros", "config": {}, "registered_name": null}, "gamma_initializer": {"module": "keras.initializers", "class_name": "Ones", "config": {}, "registered_name": null}, "moving_mean_initializer": {"module": "keras.initializers", "class_name": "Zeros", "config": {}, "registered_name": null}, "moving_variance_initializer": {"module": "keras.initializers", "class_name": "Ones", "config": {}, "registered_name": null}, "beta_regularizer": null, "gamma_regularizer": null, "beta_constraint": null, "gamma_constraint": null}, "name": "batch_normalization_17", "inbound_nodes": [[["conv2d_17", 0, 0, {}]]]}, {"class_name": "BatchNormalization", "config": {"name": "batch_normalization_18", "trainable": false, "dtype": "float32", "axis": [3], "momentum": 0.99, "epsilon": 0.001, "center": true, "scale": false, "beta_initializer": {"module": "keras.initializers", "class_name": "Zeros", "config": {}, "registered_name": null}, "gamma_initializer": {"module": "keras.initializers", "class_name": "Ones", "config": {}, "registered_name": null}, "moving_mean_initializer": {"module": "keras.initializers", "class_name": "Zeros", "config": {}, "registered_name": null}, "moving_variance_initializer": {"module": "keras.initializers", "class_name": "Ones", "config": {}, "registered_name": null}, "beta_regularizer": null, "gamma_regularizer": null, "beta_constraint": null, "gamma_constraint": null}, "name": "batch_normalization_18", "inbound_nodes": [[["conv2d_18", 0, 0, {}]]]}, {"class_name": "Activation", "config": {"name": "activation_12", "trainable": false, "dtype": "float32", "activation": "relu"}, "name": "activation_12", "inbound_nodes": [[["batch_normalization_12", 0, 0, {}]]]}, {"class_name": "Activation", "config": {"name": "activation_14", "trainable": false, "dtype": "float32", "activation": "relu"}, "name": "activation_14", "inbound_nodes": [[["batch_normalization_14", 0, 0, {}]]]}, {"class_name": "Activation", "config": {"name": "activation_17", "trainable": false, "dtype": "float32", "activation": "relu"}, "name": "activation_17", "inbound_nodes": [[["batch_normalization_17", 0, 0, {}]]]}, {"class_name": "Activation", "config": {"name": "activation_18", "trainable": false, "dtype": "float32", "activation": "relu"}, "name": "activation_18", "inbound_nodes": [[["batch_normalization_18", 0, 0, {}]]]}, {"class_name": "Concatenate", "config": {"name": "mixed1", "trainable": false, "dtype": "float32", "axis": 3}, "name": "mixed1", "inbound_nodes": [[["activation_12", 0, 0, {}], ["activation_14", 0, 0, {}], ["activation_17", 0, 0, {}], ["activation_18", 0, 0, {}]]]}, {"class_name": "Conv2D", "config": {"name": "conv2d_22", "trainable": false, "dtype": "float32", "filters": 64, "kernel_size": [1, 1], "strides": [1, 1], "padding": "same", "data_format": "channels_last", "dilation_rate": [1, 1], "groups": 1, "activation": "linear", "use_bias": false, "kernel_initializer": {"module": "keras.initializers", "class_name": "GlorotUniform", "config": {"seed": null}, "registered_name": null}, "bias_initializer": {"module": "keras.initializers", "class_name": "Zeros", "config": {}, "registered_name": null}, "kernel_regularizer": null, "bias_regularizer": null, "activity_regularizer": null, "kernel_constraint": null, "bias_constraint": null}, "name": "conv2d_22", "inbound_nodes": [[["mixed1", 0, 0, {}]]]}, {"class_name": "BatchNormalization", "config": {"name": "batch_normalization_22", "trainable": false, "dtype": "float32", "axis": [3], "momentum": 0.99, "epsilon": 0.001, "center": true, "scale": false, "beta_initializer": {"module": "keras.initializers", "class_name": "Zeros", "config": {}, "registered_name": null}, "gamma_initializer": {"module": "keras.initializers", "class_name": "Ones", "config": {}, "registered_name": null}, "moving_mean_initializer": {"module": "keras.initializers", "class_name": "Zeros", "config": {}, "registered_name": null}, "moving_variance_initializer": {"module": "keras.initializers", "class_name": "Ones", "config": {}, "registered_name": null}, "beta_regularizer": null, "gamma_regularizer": null, "beta_constraint": null, "gamma_constraint": null}, "name": "batch_normalization_22", "inbound_nodes": [[["conv2d_22", 0, 0, {}]]]}, {"class_name": "Activation", "config": {"name": "activation_22", "trainable": false, "dtype": "float32", "activation": "relu"}, "name": "activation_22", "inbound_nodes": [[["batch_normalization_22", 0, 0, {}]]]}, {"class_name": "Conv2D", "config": {"name": "conv2d_20", "trainable": false, "dtype": "float32", "filters": 48, "kernel_size": [1, 1], "strides": [1, 1], "padding": "same", "data_format": "channels_last", "dilation_rate": [1, 1], "groups": 1, "activation": "linear", "use_bias": false, "kernel_initializer": {"module": "keras.initializers", "class_name": "GlorotUniform", "config": {"seed": null}, "registered_name": null}, "bias_initializer": {"module": "keras.initializers", "class_name": "Zeros", "config": {}, "registered_name": null}, "kernel_regularizer": null, "bias_regularizer": null, "activity_regularizer": null, "kernel_constraint": null, "bias_constraint": null}, "name": "conv2d_20", "inbound_nodes": [[["mixed1", 0, 0, {}]]]}, {"class_name": "Conv2D", "config": {"name": "conv2d_23", "trainable": false, "dtype": "float32", "filters": 96, "kernel_size": [3, 3], "strides": [1, 1], "padding": "same", "data_format": "channels_last", "dilation_rate": [1, 1], "groups": 1, "activation": "linear", "use_bias": false, "kernel_initializer": {"module": "keras.initializers", "class_name": "GlorotUniform", "config": {"seed": null}, "registered_name": null}, "bias_initializer": {"module": "keras.initializers", "class_name": "Zeros", "config": {}, "registered_name": null}, "kernel_regularizer": null, "bias_regularizer": null, "activity_regularizer": null, "kernel_constraint": null, "bias_constraint": null}, "name": "conv2d_23", "inbound_nodes": [[["activation_22", 0, 0, {}]]]}, {"class_name": "BatchNormalization", "config": {"name": "batch_normalization_20", "trainable": false, "dtype": "float32", "axis": [3], "momentum": 0.99, "epsilon": 0.001, "center": true, "scale": false, "beta_initializer": {"module": "keras.initializers", "class_name": "Zeros", "config": {}, "registered_name": null}, "gamma_initializer": {"module": "keras.initializers", "class_name": "Ones", "config": {}, "registered_name": null}, "moving_mean_initializer": {"module": "keras.initializers", "class_name": "Zeros", "config": {}, "registered_name": null}, "moving_variance_initializer": {"module": "keras.initializers", "class_name": "Ones", "config": {}, "registered_name": null}, "beta_regularizer": null, "gamma_regularizer": null, "beta_constraint": null, "gamma_constraint": null}, "name": "batch_normalization_20", "inbound_nodes": [[["conv2d_20", 0, 0, {}]]]}, {"class_name": "BatchNormalization", "config": {"name": "batch_normalization_23", "trainable": false, "dtype": "float32", "axis": [3], "momentum": 0.99, "epsilon": 0.001, "center": true, "scale": false, "beta_initializer": {"module": "keras.initializers", "class_name": "Zeros", "config": {}, "registered_name": null}, "gamma_initializer": {"module": "keras.initializers", "class_name": "Ones", "config": {}, "registered_name": null}, "moving_mean_initializer": {"module": "keras.initializers", "class_name": "Zeros", "config": {}, "registered_name": null}, "moving_variance_initializer": {"module": "keras.initializers", "class_name": "Ones", "config": {}, "registered_name": null}, "beta_regularizer": null, "gamma_regularizer": null, "beta_constraint": null, "gamma_constraint": null}, "name": "batch_normalization_23", "inbound_nodes": [[["conv2d_23", 0, 0, {}]]]}, {"class_name": "Activation", "config": {"name": "activation_20", "trainable": false, "dtype": "float32", "activation": "relu"}, "name": "activation_20", "inbound_nodes": [[["batch_normalization_20", 0, 0, {}]]]}, {"class_name": "Activation", "config": {"name": "activation_23", "trainable": false, "dtype": "float32", "activation": "relu"}, "name": "activation_23", "inbound_nodes": [[["batch_normalization_23", 0, 0, {}]]]}, {"class_name": "AveragePooling2D", "config": {"name": "average_pooling2d_2", "trainable": false, "dtype": "float32", "pool_size": [3, 3], "padding": "same", "strides": [1, 1], "data_format": "channels_last"}, "name": "average_pooling2d_2", "inbound_nodes": [[["mixed1", 0, 0, {}]]]}, {"class_name": "Conv2D", "config": {"name": "conv2d_19", "trainable": false, "dtype": "float32", "filters": 64, "kernel_size": [1, 1], "strides": [1, 1], "padding": "same", "data_format": "channels_last", "dilation_rate": [1, 1], "groups": 1, "activation": "linear", "use_bias": false, "kernel_initializer": {"module": "keras.initializers", "class_name": "GlorotUniform", "config": {"seed": null}, "registered_name": null}, "bias_initializer": {"module": "keras.initializers", "class_name": "Zeros", "config": {}, "registered_name": null}, "kernel_regularizer": null, "bias_regularizer": null, "activity_regularizer": null, "kernel_constraint": null, "bias_constraint": null}, "name": "conv2d_19", "inbound_nodes": [[["mixed1", 0, 0, {}]]]}, {"class_name": "Conv2D", "config": {"name": "conv2d_21", "trainable": false, "dtype": "float32", "filters": 64, "kernel_size": [5, 5], "strides": [1, 1], "padding": "same", "data_format": "channels_last", "dilation_rate": [1, 1], "groups": 1, "activation": "linear", "use_bias": false, "kernel_initializer": {"module": "keras.initializers", "class_name": "GlorotUniform", "config": {"seed": null}, "registered_name": null}, "bias_initializer": {"module": "keras.initializers", "class_name": "Zeros", "config": {}, "registered_name": null}, "kernel_regularizer": null, "bias_regularizer": null, "activity_regularizer": null, "kernel_constraint": null, "bias_constraint": null}, "name": "conv2d_21", "inbound_nodes": [[["activation_20", 0, 0, {}]]]}, {"class_name": "Conv2D", "config": {"name": "conv2d_24", "trainable": false, "dtype": "float32", "filters": 96, "kernel_size": [3, 3], "strides": [1, 1], "padding": "same", "data_format": "channels_last", "dilation_rate": [1, 1], "groups": 1, "activation": "linear", "use_bias": false, "kernel_initializer": {"module": "keras.initializers", "class_name": "GlorotUniform", "config": {"seed": null}, "registered_name": null}, "bias_initializer": {"module": "keras.initializers", "class_name": "Zeros", "config": {}, "registered_name": null}, "kernel_regularizer": null, "bias_regularizer": null, "activity_regularizer": null, "kernel_constraint": null, "bias_constraint": null}, "name": "conv2d_24", "inbound_nodes": [[["activation_23", 0, 0, {}]]]}, {"class_name": "Conv2D", "config": {"name": "conv2d_25", "trainable": false, "dtype": "float32", "filters": 64, "kernel_size": [1, 1], "strides": [1, 1], "padding": "same", "data_format": "channels_last", "dilation_rate": [1, 1], "groups": 1, "activation": "linear", "use_bias": false, "kernel_initializer": {"module": "keras.initializers", "class_name": "GlorotUniform", "config": {"seed": null}, "registered_name": null}, "bias_initializer": {"module": "keras.initializers", "class_name": "Zeros", "config": {}, "registered_name": null}, "kernel_regularizer": null, "bias_regularizer": null, "activity_regularizer": null, "kernel_constraint": null, "bias_constraint": null}, "name": "conv2d_25", "inbound_nodes": [[["average_pooling2d_2", 0, 0, {}]]]}, {"class_name": "BatchNormalization", "config": {"name": "batch_normalization_19", "trainable": false, "dtype": "float32", "axis": [3], "momentum": 0.99, "epsilon": 0.001, "center": true, "scale": false, "beta_initializer": {"module": "keras.initializers", "class_name": "Zeros", "config": {}, "registered_name": null}, "gamma_initializer": {"module": "keras.initializers", "class_name": "Ones", "config": {}, "registered_name": null}, "moving_mean_initializer": {"module": "keras.initializers", "class_name": "Zeros", "config": {}, "registered_name": null}, "moving_variance_initializer": {"module": "keras.initializers", "class_name": "Ones", "config": {}, "registered_name": null}, "beta_regularizer": null, "gamma_regularizer": null, "beta_constraint": null, "gamma_constraint": null}, "name": "batch_normalization_19", "inbound_nodes": [[["conv2d_19", 0, 0, {}]]]}, {"class_name": "BatchNormalization", "config": {"name": "batch_normalization_21", "trainable": false, "dtype": "float32", "axis": [3], "momentum": 0.99, "epsilon": 0.001, "center": true, "scale": false, "beta_initializer": {"module": "keras.initializers", "class_name": "Zeros", "config": {}, "registered_name": null}, "gamma_initializer": {"module": "keras.initializers", "class_name": "Ones", "config": {}, "registered_name": null}, "moving_mean_initializer": {"module": "keras.initializers", "class_name": "Zeros", "config": {}, "registered_name": null}, "moving_variance_initializer": {"module": "keras.initializers", "class_name": "Ones", "config": {}, "registered_name": null}, "beta_regularizer": null, "gamma_regularizer": null, "beta_constraint": null, "gamma_constraint": null}, "name": "batch_normalization_21", "inbound_nodes": [[["conv2d_21", 0, 0, {}]]]}, {"class_name": "BatchNormalization", "config": {"name": "batch_normalization_24", "trainable": false, "dtype": "float32", "axis": [3], "momentum": 0.99, "epsilon": 0.001, "center": true, "scale": false, "beta_initializer": {"module": "keras.initializers", "class_name": "Zeros", "config": {}, "registered_name": null}, "gamma_initializer": {"module": "keras.initializers", "class_name": "Ones", "config": {}, "registered_name": null}, "moving_mean_initializer": {"module": "keras.initializers", "class_name": "Zeros", "config": {}, "registered_name": null}, "moving_variance_initializer": {"module": "keras.initializers", "class_name": "Ones", "config": {}, "registered_name": null}, "beta_regularizer": null, "gamma_regularizer": null, "beta_constraint": null, "gamma_constraint": null}, "name": "batch_normalization_24", "inbound_nodes": [[["conv2d_24", 0, 0, {}]]]}, {"class_name": "BatchNormalization", "config": {"name": "batch_normalization_25", "trainable": false, "dtype": "float32", "axis": [3], "momentum": 0.99, "epsilon": 0.001, "center": true, "scale": false, "beta_initializer": {"module": "keras.initializers", "class_name": "Zeros", "config": {}, "registered_name": null}, "gamma_initializer": {"module": "keras.initializers", "class_name": "Ones", "config": {}, "registered_name": null}, "moving_mean_initializer": {"module": "keras.initializers", "class_name": "Zeros", "config": {}, "registered_name": null}, "moving_variance_initializer": {"module": "keras.initializers", "class_name": "Ones", "config": {}, "registered_name": null}, "beta_regularizer": null, "gamma_regularizer": null, "beta_constraint": null, "gamma_constraint": null}, "name": "batch_normalization_25", "inbound_nodes": [[["conv2d_25", 0, 0, {}]]]}, {"class_name": "Activation", "config": {"name": "activation_19", "trainable": false, "dtype": "float32", "activation": "relu"}, "name": "activation_19", "inbound_nodes": [[["batch_normalization_19", 0, 0, {}]]]}, {"class_name": "Activation", "config": {"name": "activation_21", "trainable": false, "dtype": "float32", "activation": "relu"}, "name": "activation_21", "inbound_nodes": [[["batch_normalization_21", 0, 0, {}]]]}, {"class_name": "Activation", "config": {"name": "activation_24", "trainable": false, "dtype": "float32", "activation": "relu"}, "name": "activation_24", "inbound_nodes": [[["batch_normalization_24", 0, 0, {}]]]}, {"class_name": "Activation", "config": {"name": "activation_25", "trainable": false, "dtype": "float32", "activation": "relu"}, "name": "activation_25", "inbound_nodes": [[["batch_normalization_25", 0, 0, {}]]]}, {"class_name": "Concatenate", "config": {"name": "mixed2", "trainable": false, "dtype": "float32", "axis": 3}, "name": "mixed2", "inbound_nodes": [[["activation_19", 0, 0, {}], ["activation_21", 0, 0, {}], ["activation_24", 0, 0, {}], ["activation_25", 0, 0, {}]]]}, {"class_name": "Conv2D", "config": {"name": "conv2d_27", "trainable": false, "dtype": "float32", "filters": 64, "kernel_size": [1, 1], "strides": [1, 1], "padding": "same", "data_format": "channels_last", "dilation_rate": [1, 1], "groups": 1, "activation": "linear", "use_bias": false, "kernel_initializer": {"module": "keras.initializers", "class_name": "GlorotUniform", "config": {"seed": null}, "registered_name": null}, "bias_initializer": {"module": "keras.initializers", "class_name": "Zeros", "config": {}, "registered_name": null}, "kernel_regularizer": null, "bias_regularizer": null, "activity_regularizer": null, "kernel_constraint": null, "bias_constraint": null}, "name": "conv2d_27", "inbound_nodes": [[["mixed2", 0, 0, {}]]]}, {"class_name": "BatchNormalization", "config": {"name": "batch_normalization_27", "trainable": false, "dtype": "float32", "axis": [3], "momentum": 0.99, "epsilon": 0.001, "center": true, "scale": false, "beta_initializer": {"module": "keras.initializers", "class_name": "Zeros", "config": {}, "registered_name": null}, "gamma_initializer": {"module": "keras.initializers", "class_name": "Ones", "config": {}, "registered_name": null}, "moving_mean_initializer": {"module": "keras.initializers", "class_name": "Zeros", "config": {}, "registered_name": null}, "moving_variance_initializer": {"module": "keras.initializers", "class_name": "Ones", "config": {}, "registered_name": null}, "beta_regularizer": null, "gamma_regularizer": null, "beta_constraint": null, "gamma_constraint": null}, "name": "batch_normalization_27", "inbound_nodes": [[["conv2d_27", 0, 0, {}]]]}, {"class_name": "Activation", "config": {"name": "activation_27", "trainable": false, "dtype": "float32", "activation": "relu"}, "name": "activation_27", "inbound_nodes": [[["batch_normalization_27", 0, 0, {}]]]}, {"class_name": "Conv2D", "config": {"name": "conv2d_28", "trainable": false, "dtype": "float32", "filters": 96, "kernel_size": [3, 3], "strides": [1, 1], "padding": "same", "data_format": "channels_last", "dilation_rate": [1, 1], "groups": 1, "activation": "linear", "use_bias": false, "kernel_initializer": {"module": "keras.initializers", "class_name": "GlorotUniform", "config": {"seed": null}, "registered_name": null}, "bias_initializer": {"module": "keras.initializers", "class_name": "Zeros", "config": {}, "registered_name": null}, "kernel_regularizer": null, "bias_regularizer": null, "activity_regularizer": null, "kernel_constraint": null, "bias_constraint": null}, "name": "conv2d_28", "inbound_nodes": [[["activation_27", 0, 0, {}]]]}, {"class_name": "BatchNormalization", "config": {"name": "batch_normalization_28", "trainable": false, "dtype": "float32", "axis": [3], "momentum": 0.99, "epsilon": 0.001, "center": true, "scale": false, "beta_initializer": {"module": "keras.initializers", "class_name": "Zeros", "config": {}, "registered_name": null}, "gamma_initializer": {"module": "keras.initializers", "class_name": "Ones", "config": {}, "registered_name": null}, "moving_mean_initializer": {"module": "keras.initializers", "class_name": "Zeros", "config": {}, "registered_name": null}, "moving_variance_initializer": {"module": "keras.initializers", "class_name": "Ones", "config": {}, "registered_name": null}, "beta_regularizer": null, "gamma_regularizer": null, "beta_constraint": null, "gamma_constraint": null}, "name": "batch_normalization_28", "inbound_nodes": [[["conv2d_28", 0, 0, {}]]]}, {"class_name": "Activation", "config": {"name": "activation_28", "trainable": false, "dtype": "float32", "activation": "relu"}, "name": "activation_28", "inbound_nodes": [[["batch_normalization_28", 0, 0, {}]]]}, {"class_name": "Conv2D", "config": {"name": "conv2d_26", "trainable": false, "dtype": "float32", "filters": 384, "kernel_size": [3, 3], "strides": [2, 2], "padding": "valid", "data_format": "channels_last", "dilation_rate": [1, 1], "groups": 1, "activation": "linear", "use_bias": false, "kernel_initializer": {"module": "keras.initializers", "class_name": "GlorotUniform", "config": {"seed": null}, "registered_name": null}, "bias_initializer": {"module": "keras.initializers", "class_name": "Zeros", "config": {}, "registered_name": null}, "kernel_regularizer": null, "bias_regularizer": null, "activity_regularizer": null, "kernel_constraint": null, "bias_constraint": null}, "name": "conv2d_26", "inbound_nodes": [[["mixed2", 0, 0, {}]]]}, {"class_name": "Conv2D", "config": {"name": "conv2d_29", "trainable": false, "dtype": "float32", "filters": 96, "kernel_size": [3, 3], "strides": [2, 2], "padding": "valid", "data_format": "channels_last", "dilation_rate": [1, 1], "groups": 1, "activation": "linear", "use_bias": false, "kernel_initializer": {"module": "keras.initializers", "class_name": "GlorotUniform", "config": {"seed": null}, "registered_name": null}, "bias_initializer": {"module": "keras.initializers", "class_name": "Zeros", "config": {}, "registered_name": null}, "kernel_regularizer": null, "bias_regularizer": null, "activity_regularizer": null, "kernel_constraint": null, "bias_constraint": null}, "name": "conv2d_29", "inbound_nodes": [[["activation_28", 0, 0, {}]]]}, {"class_name": "BatchNormalization", "config": {"name": "batch_normalization_26", "trainable": false, "dtype": "float32", "axis": [3], "momentum": 0.99, "epsilon": 0.001, "center": true, "scale": false, "beta_initializer": {"module": "keras.initializers", "class_name": "Zeros", "config": {}, "registered_name": null}, "gamma_initializer": {"module": "keras.initializers", "class_name": "Ones", "config": {}, "registered_name": null}, "moving_mean_initializer": {"module": "keras.initializers", "class_name": "Zeros", "config": {}, "registered_name": null}, "moving_variance_initializer": {"module": "keras.initializers", "class_name": "Ones", "config": {}, "registered_name": null}, "beta_regularizer": null, "gamma_regularizer": null, "beta_constraint": null, "gamma_constraint": null}, "name": "batch_normalization_26", "inbound_nodes": [[["conv2d_26", 0, 0, {}]]]}, {"class_name": "BatchNormalization", "config": {"name": "batch_normalization_29", "trainable": false, "dtype": "float32", "axis": [3], "momentum": 0.99, "epsilon": 0.001, "center": true, "scale": false, "beta_initializer": {"module": "keras.initializers", "class_name": "Zeros", "config": {}, "registered_name": null}, "gamma_initializer": {"module": "keras.initializers", "class_name": "Ones", "config": {}, "registered_name": null}, "moving_mean_initializer": {"module": "keras.initializers", "class_name": "Zeros", "config": {}, "registered_name": null}, "moving_variance_initializer": {"module": "keras.initializers", "class_name": "Ones", "config": {}, "registered_name": null}, "beta_regularizer": null, "gamma_regularizer": null, "beta_constraint": null, "gamma_constraint": null}, "name": "batch_normalization_29", "inbound_nodes": [[["conv2d_29", 0, 0, {}]]]}, {"class_name": "Activation", "config": {"name": "activation_26", "trainable": false, "dtype": "float32", "activation": "relu"}, "name": "activation_26", "inbound_nodes": [[["batch_normalization_26", 0, 0, {}]]]}, {"class_name": "Activation", "config": {"name": "activation_29", "trainable": false, "dtype": "float32", "activation": "relu"}, "name": "activation_29", "inbound_nodes": [[["batch_normalization_29", 0, 0, {}]]]}, {"class_name": "MaxPooling2D", "config": {"name": "max_pooling2d_2", "trainable": false, "dtype": "float32", "pool_size": [3, 3], "padding": "valid", "strides": [2, 2], "data_format": "channels_last"}, "name": "max_pooling2d_2", "inbound_nodes": [[["mixed2", 0, 0, {}]]]}, {"class_name": "Concatenate", "config": {"name": "mixed3", "trainable": false, "dtype": "float32", "axis": 3}, "name": "mixed3", "inbound_nodes": [[["activation_26", 0, 0, {}], ["activation_29", 0, 0, {}], ["max_pooling2d_2", 0, 0, {}]]]}, {"class_name": "Conv2D", "config": {"name": "conv2d_34", "trainable": false, "dtype": "float32", "filters": 128, "kernel_size": [1, 1], "strides": [1, 1], "padding": "same", "data_format": "channels_last", "dilation_rate": [1, 1], "groups": 1, "activation": "linear", "use_bias": false, "kernel_initializer": {"module": "keras.initializers", "class_name": "GlorotUniform", "config": {"seed": null}, "registered_name": null}, "bias_initializer": {"module": "keras.initializers", "class_name": "Zeros", "config": {}, "registered_name": null}, "kernel_regularizer": null, "bias_regularizer": null, "activity_regularizer": null, "kernel_constraint": null, "bias_constraint": null}, "name": "conv2d_34", "inbound_nodes": [[["mixed3", 0, 0, {}]]]}, {"class_name": "BatchNormalization", "config": {"name": "batch_normalization_34", "trainable": false, "dtype": "float32", "axis": [3], "momentum": 0.99, "epsilon": 0.001, "center": true, "scale": false, "beta_initializer": {"module": "keras.initializers", "class_name": "Zeros", "config": {}, "registered_name": null}, "gamma_initializer": {"module": "keras.initializers", "class_name": "Ones", "config": {}, "registered_name": null}, "moving_mean_initializer": {"module": "keras.initializers", "class_name": "Zeros", "config": {}, "registered_name": null}, "moving_variance_initializer": {"module": "keras.initializers", "class_name": "Ones", "config": {}, "registered_name": null}, "beta_regularizer": null, "gamma_regularizer": null, "beta_constraint": null, "gamma_constraint": null}, "name": "batch_normalization_34", "inbound_nodes": [[["conv2d_34", 0, 0, {}]]]}, {"class_name": "Activation", "config": {"name": "activation_34", "trainable": false, "dtype": "float32", "activation": "relu"}, "name": "activation_34", "inbound_nodes": [[["batch_normalization_34", 0, 0, {}]]]}, {"class_name": "Conv2D", "config": {"name": "conv2d_35", "trainable": false, "dtype": "float32", "filters": 128, "kernel_size": [7, 1], "strides": [1, 1], "padding": "same", "data_format": "channels_last", "dilation_rate": [1, 1], "groups": 1, "activation": "linear", "use_bias": false, "kernel_initializer": {"module": "keras.initializers", "class_name": "GlorotUniform", "config": {"seed": null}, "registered_name": null}, "bias_initializer": {"module": "keras.initializers", "class_name": "Zeros", "config": {}, "registered_name": null}, "kernel_regularizer": null, "bias_regularizer": null, "activity_regularizer": null, "kernel_constraint": null, "bias_constraint": null}, "name": "conv2d_35", "inbound_nodes": [[["activation_34", 0, 0, {}]]]}, {"class_name": "BatchNormalization", "config": {"name": "batch_normalization_35", "trainable": false, "dtype": "float32", "axis": [3], "momentum": 0.99, "epsilon": 0.001, "center": true, "scale": false, "beta_initializer": {"module": "keras.initializers", "class_name": "Zeros", "config": {}, "registered_name": null}, "gamma_initializer": {"module": "keras.initializers", "class_name": "Ones", "config": {}, "registered_name": null}, "moving_mean_initializer": {"module": "keras.initializers", "class_name": "Zeros", "config": {}, "registered_name": null}, "moving_variance_initializer": {"module": "keras.initializers", "class_name": "Ones", "config": {}, "registered_name": null}, "beta_regularizer": null, "gamma_regularizer": null, "beta_constraint": null, "gamma_constraint": null}, "name": "batch_normalization_35", "inbound_nodes": [[["conv2d_35", 0, 0, {}]]]}, {"class_name": "Activation", "config": {"name": "activation_35", "trainable": false, "dtype": "float32", "activation": "relu"}, "name": "activation_35", "inbound_nodes": [[["batch_normalization_35", 0, 0, {}]]]}, {"class_name": "Conv2D", "config": {"name": "conv2d_31", "trainable": false, "dtype": "float32", "filters": 128, "kernel_size": [1, 1], "strides": [1, 1], "padding": "same", "data_format": "channels_last", "dilation_rate": [1, 1], "groups": 1, "activation": "linear", "use_bias": false, "kernel_initializer": {"module": "keras.initializers", "class_name": "GlorotUniform", "config": {"seed": null}, "registered_name": null}, "bias_initializer": {"module": "keras.initializers", "class_name": "Zeros", "config": {}, "registered_name": null}, "kernel_regularizer": null, "bias_regularizer": null, "activity_regularizer": null, "kernel_constraint": null, "bias_constraint": null}, "name": "conv2d_31", "inbound_nodes": [[["mixed3", 0, 0, {}]]]}, {"class_name": "Conv2D", "config": {"name": "conv2d_36", "trainable": false, "dtype": "float32", "filters": 128, "kernel_size": [1, 7], "strides": [1, 1], "padding": "same", "data_format": "channels_last", "dilation_rate": [1, 1], "groups": 1, "activation": "linear", "use_bias": false, "kernel_initializer": {"module": "keras.initializers", "class_name": "GlorotUniform", "config": {"seed": null}, "registered_name": null}, "bias_initializer": {"module": "keras.initializers", "class_name": "Zeros", "config": {}, "registered_name": null}, "kernel_regularizer": null, "bias_regularizer": null, "activity_regularizer": null, "kernel_constraint": null, "bias_constraint": null}, "name": "conv2d_36", "inbound_nodes": [[["activation_35", 0, 0, {}]]]}, {"class_name": "BatchNormalization", "config": {"name": "batch_normalization_31", "trainable": false, "dtype": "float32", "axis": [3], "momentum": 0.99, "epsilon": 0.001, "center": true, "scale": false, "beta_initializer": {"module": "keras.initializers", "class_name": "Zeros", "config": {}, "registered_name": null}, "gamma_initializer": {"module": "keras.initializers", "class_name": "Ones", "config": {}, "registered_name": null}, "moving_mean_initializer": {"module": "keras.initializers", "class_name": "Zeros", "config": {}, "registered_name": null}, "moving_variance_initializer": {"module": "keras.initializers", "class_name": "Ones", "config": {}, "registered_name": null}, "beta_regularizer": null, "gamma_regularizer": null, "beta_constraint": null, "gamma_constraint": null}, "name": "batch_normalization_31", "inbound_nodes": [[["conv2d_31", 0, 0, {}]]]}, {"class_name": "BatchNormalization", "config": {"name": "batch_normalization_36", "trainable": false, "dtype": "float32", "axis": [3], "momentum": 0.99, "epsilon": 0.001, "center": true, "scale": false, "beta_initializer": {"module": "keras.initializers", "class_name": "Zeros", "config": {}, "registered_name": null}, "gamma_initializer": {"module": "keras.initializers", "class_name": "Ones", "config": {}, "registered_name": null}, "moving_mean_initializer": {"module": "keras.initializers", "class_name": "Zeros", "config": {}, "registered_name": null}, "moving_variance_initializer": {"module": "keras.initializers", "class_name": "Ones", "config": {}, "registered_name": null}, "beta_regularizer": null, "gamma_regularizer": null, "beta_constraint": null, "gamma_constraint": null}, "name": "batch_normalization_36", "inbound_nodes": [[["conv2d_36", 0, 0, {}]]]}, {"class_name": "Activation", "config": {"name": "activation_31", "trainable": false, "dtype": "float32", "activation": "relu"}, "name": "activation_31", "inbound_nodes": [[["batch_normalization_31", 0, 0, {}]]]}, {"class_name": "Activation", "config": {"name": "activation_36", "trainable": false, "dtype": "float32", "activation": "relu"}, "name": "activation_36", "inbound_nodes": [[["batch_normalization_36", 0, 0, {}]]]}, {"class_name": "Conv2D", "config": {"name": "conv2d_32", "trainable": false, "dtype": "float32", "filters": 128, "kernel_size": [1, 7], "strides": [1, 1], "padding": "same", "data_format": "channels_last", "dilation_rate": [1, 1], "groups": 1, "activation": "linear", "use_bias": false, "kernel_initializer": {"module": "keras.initializers", "class_name": "GlorotUniform", "config": {"seed": null}, "registered_name": null}, "bias_initializer": {"module": "keras.initializers", "class_name": "Zeros", "config": {}, "registered_name": null}, "kernel_regularizer": null, "bias_regularizer": null, "activity_regularizer": null, "kernel_constraint": null, "bias_constraint": null}, "name": "conv2d_32", "inbound_nodes": [[["activation_31", 0, 0, {}]]]}, {"class_name": "Conv2D", "config": {"name": "conv2d_37", "trainable": false, "dtype": "float32", "filters": 128, "kernel_size": [7, 1], "strides": [1, 1], "padding": "same", "data_format": "channels_last", "dilation_rate": [1, 1], "groups": 1, "activation": "linear", "use_bias": false, "kernel_initializer": {"module": "keras.initializers", "class_name": "GlorotUniform", "config": {"seed": null}, "registered_name": null}, "bias_initializer": {"module": "keras.initializers", "class_name": "Zeros", "config": {}, "registered_name": null}, "kernel_regularizer": null, "bias_regularizer": null, "activity_regularizer": null, "kernel_constraint": null, "bias_constraint": null}, "name": "conv2d_37", "inbound_nodes": [[["activation_36", 0, 0, {}]]]}, {"class_name": "BatchNormalization", "config": {"name": "batch_normalization_32", "trainable": false, "dtype": "float32", "axis": [3], "momentum": 0.99, "epsilon": 0.001, "center": true, "scale": false, "beta_initializer": {"module": "keras.initializers", "class_name": "Zeros", "config": {}, "registered_name": null}, "gamma_initializer": {"module": "keras.initializers", "class_name": "Ones", "config": {}, "registered_name": null}, "moving_mean_initializer": {"module": "keras.initializers", "class_name": "Zeros", "config": {}, "registered_name": null}, "moving_variance_initializer": {"module": "keras.initializers", "class_name": "Ones", "config": {}, "registered_name": null}, "beta_regularizer": null, "gamma_regularizer": null, "beta_constraint": null, "gamma_constraint": null}, "name": "batch_normalization_32", "inbound_nodes": [[["conv2d_32", 0, 0, {}]]]}, {"class_name": "BatchNormalization", "config": {"name": "batch_normalization_37", "trainable": false, "dtype": "float32", "axis": [3], "momentum": 0.99, "epsilon": 0.001, "center": true, "scale": false, "beta_initializer": {"module": "keras.initializers", "class_name": "Zeros", "config": {}, "registered_name": null}, "gamma_initializer": {"module": "keras.initializers", "class_name": "Ones", "config": {}, "registered_name": null}, "moving_mean_initializer": {"module": "keras.initializers", "class_name": "Zeros", "config": {}, "registered_name": null}, "moving_variance_initializer": {"module": "keras.initializers", "class_name": "Ones", "config": {}, "registered_name": null}, "beta_regularizer": null, "gamma_regularizer": null, "beta_constraint": null, "gamma_constraint": null}, "name": "batch_normalization_37", "inbound_nodes": [[["conv2d_37", 0, 0, {}]]]}, {"class_name": "Activation", "config": {"name": "activation_32", "trainable": false, "dtype": "float32", "activation": "relu"}, "name": "activation_32", "inbound_nodes": [[["batch_normalization_32", 0, 0, {}]]]}, {"class_name": "Activation", "config": {"name": "activation_37", "trainable": false, "dtype": "float32", "activation": "relu"}, "name": "activation_37", "inbound_nodes": [[["batch_normalization_37", 0, 0, {}]]]}, {"class_name": "AveragePooling2D", "config": {"name": "average_pooling2d_3", "trainable": false, "dtype": "float32", "pool_size": [3, 3], "padding": "same", "strides": [1, 1], "data_format": "channels_last"}, "name": "average_pooling2d_3", "inbound_nodes": [[["mixed3", 0, 0, {}]]]}, {"class_name": "Conv2D", "config": {"name": "conv2d_30", "trainable": false, "dtype": "float32", "filters": 192, "kernel_size": [1, 1], "strides": [1, 1], "padding": "same", "data_format": "channels_last", "dilation_rate": [1, 1], "groups": 1, "activation": "linear", "use_bias": false, "kernel_initializer": {"module": "keras.initializers", "class_name": "GlorotUniform", "config": {"seed": null}, "registered_name": null}, "bias_initializer": {"module": "keras.initializers", "class_name": "Zeros", "config": {}, "registered_name": null}, "kernel_regularizer": null, "bias_regularizer": null, "activity_regularizer": null, "kernel_constraint": null, "bias_constraint": null}, "name": "conv2d_30", "inbound_nodes": [[["mixed3", 0, 0, {}]]]}, {"class_name": "Conv2D", "config": {"name": "conv2d_33", "trainable": false, "dtype": "float32", "filters": 192, "kernel_size": [7, 1], "strides": [1, 1], "padding": "same", "data_format": "channels_last", "dilation_rate": [1, 1], "groups": 1, "activation": "linear", "use_bias": false, "kernel_initializer": {"module": "keras.initializers", "class_name": "GlorotUniform", "config": {"seed": null}, "registered_name": null}, "bias_initializer": {"module": "keras.initializers", "class_name": "Zeros", "config": {}, "registered_name": null}, "kernel_regularizer": null, "bias_regularizer": null, "activity_regularizer": null, "kernel_constraint": null, "bias_constraint": null}, "name": "conv2d_33", "inbound_nodes": [[["activation_32", 0, 0, {}]]]}, {"class_name": "Conv2D", "config": {"name": "conv2d_38", "trainable": false, "dtype": "float32", "filters": 192, "kernel_size": [1, 7], "strides": [1, 1], "padding": "same", "data_format": "channels_last", "dilation_rate": [1, 1], "groups": 1, "activation": "linear", "use_bias": false, "kernel_initializer": {"module": "keras.initializers", "class_name": "GlorotUniform", "config": {"seed": null}, "registered_name": null}, "bias_initializer": {"module": "keras.initializers", "class_name": "Zeros", "config": {}, "registered_name": null}, "kernel_regularizer": null, "bias_regularizer": null, "activity_regularizer": null, "kernel_constraint": null, "bias_constraint": null}, "name": "conv2d_38", "inbound_nodes": [[["activation_37", 0, 0, {}]]]}, {"class_name": "Conv2D", "config": {"name": "conv2d_39", "trainable": false, "dtype": "float32", "filters": 192, "kernel_size": [1, 1], "strides": [1, 1], "padding": "same", "data_format": "channels_last", "dilation_rate": [1, 1], "groups": 1, "activation": "linear", "use_bias": false, "kernel_initializer": {"module": "keras.initializers", "class_name": "GlorotUniform", "config": {"seed": null}, "registered_name": null}, "bias_initializer": {"module": "keras.initializers", "class_name": "Zeros", "config": {}, "registered_name": null}, "kernel_regularizer": null, "bias_regularizer": null, "activity_regularizer": null, "kernel_constraint": null, "bias_constraint": null}, "name": "conv2d_39", "inbound_nodes": [[["average_pooling2d_3", 0, 0, {}]]]}, {"class_name": "BatchNormalization", "config": {"name": "batch_normalization_30", "trainable": false, "dtype": "float32", "axis": [3], "momentum": 0.99, "epsilon": 0.001, "center": true, "scale": false, "beta_initializer": {"module": "keras.initializers", "class_name": "Zeros", "config": {}, "registered_name": null}, "gamma_initializer": {"module": "keras.initializers", "class_name": "Ones", "config": {}, "registered_name": null}, "moving_mean_initializer": {"module": "keras.initializers", "class_name": "Zeros", "config": {}, "registered_name": null}, "moving_variance_initializer": {"module": "keras.initializers", "class_name": "Ones", "config": {}, "registered_name": null}, "beta_regularizer": null, "gamma_regularizer": null, "beta_constraint": null, "gamma_constraint": null}, "name": "batch_normalization_30", "inbound_nodes": [[["conv2d_30", 0, 0, {}]]]}, {"class_name": "BatchNormalization", "config": {"name": "batch_normalization_33", "trainable": false, "dtype": "float32", "axis": [3], "momentum": 0.99, "epsilon": 0.001, "center": true, "scale": false, "beta_initializer": {"module": "keras.initializers", "class_name": "Zeros", "config": {}, "registered_name": null}, "gamma_initializer": {"module": "keras.initializers", "class_name": "Ones", "config": {}, "registered_name": null}, "moving_mean_initializer": {"module": "keras.initializers", "class_name": "Zeros", "config": {}, "registered_name": null}, "moving_variance_initializer": {"module": "keras.initializers", "class_name": "Ones", "config": {}, "registered_name": null}, "beta_regularizer": null, "gamma_regularizer": null, "beta_constraint": null, "gamma_constraint": null}, "name": "batch_normalization_33", "inbound_nodes": [[["conv2d_33", 0, 0, {}]]]}, {"class_name": "BatchNormalization", "config": {"name": "batch_normalization_38", "trainable": false, "dtype": "float32", "axis": [3], "momentum": 0.99, "epsilon": 0.001, "center": true, "scale": false, "beta_initializer": {"module": "keras.initializers", "class_name": "Zeros", "config": {}, "registered_name": null}, "gamma_initializer": {"module": "keras.initializers", "class_name": "Ones", "config": {}, "registered_name": null}, "moving_mean_initializer": {"module": "keras.initializers", "class_name": "Zeros", "config": {}, "registered_name": null}, "moving_variance_initializer": {"module": "keras.initializers", "class_name": "Ones", "config": {}, "registered_name": null}, "beta_regularizer": null, "gamma_regularizer": null, "beta_constraint": null, "gamma_constraint": null}, "name": "batch_normalization_38", "inbound_nodes": [[["conv2d_38", 0, 0, {}]]]}, {"class_name": "BatchNormalization", "config": {"name": "batch_normalization_39", "trainable": false, "dtype": "float32", "axis": [3], "momentum": 0.99, "epsilon": 0.001, "center": true, "scale": false, "beta_initializer": {"module": "keras.initializers", "class_name": "Zeros", "config": {}, "registered_name": null}, "gamma_initializer": {"module": "keras.initializers", "class_name": "Ones", "config": {}, "registered_name": null}, "moving_mean_initializer": {"module": "keras.initializers", "class_name": "Zeros", "config": {}, "registered_name": null}, "moving_variance_initializer": {"module": "keras.initializers", "class_name": "Ones", "config": {}, "registered_name": null}, "beta_regularizer": null, "gamma_regularizer": null, "beta_constraint": null, "gamma_constraint": null}, "name": "batch_normalization_39", "inbound_nodes": [[["conv2d_39", 0, 0, {}]]]}, {"class_name": "Activation", "config": {"name": "activation_30", "trainable": false, "dtype": "float32", "activation": "relu"}, "name": "activation_30", "inbound_nodes": [[["batch_normalization_30", 0, 0, {}]]]}, {"class_name": "Activation", "config": {"name": "activation_33", "trainable": false, "dtype": "float32", "activation": "relu"}, "name": "activation_33", "inbound_nodes": [[["batch_normalization_33", 0, 0, {}]]]}, {"class_name": "Activation", "config": {"name": "activation_38", "trainable": false, "dtype": "float32", "activation": "relu"}, "name": "activation_38", "inbound_nodes": [[["batch_normalization_38", 0, 0, {}]]]}, {"class_name": "Activation", "config": {"name": "activation_39", "trainable": false, "dtype": "float32", "activation": "relu"}, "name": "activation_39", "inbound_nodes": [[["batch_normalization_39", 0, 0, {}]]]}, {"class_name": "Concatenate", "config": {"name": "mixed4", "trainable": false, "dtype": "float32", "axis": 3}, "name": "mixed4", "inbound_nodes": [[["activation_30", 0, 0, {}], ["activation_33", 0, 0, {}], ["activation_38", 0, 0, {}], ["activation_39", 0, 0, {}]]]}, {"class_name": "Conv2D", "config": {"name": "conv2d_44", "trainable": false, "dtype": "float32", "filters": 160, "kernel_size": [1, 1], "strides": [1, 1], "padding": "same", "data_format": "channels_last", "dilation_rate": [1, 1], "groups": 1, "activation": "linear", "use_bias": false, "kernel_initializer": {"module": "keras.initializers", "class_name": "GlorotUniform", "config": {"seed": null}, "registered_name": null}, "bias_initializer": {"module": "keras.initializers", "class_name": "Zeros", "config": {}, "registered_name": null}, "kernel_regularizer": null, "bias_regularizer": null, "activity_regularizer": null, "kernel_constraint": null, "bias_constraint": null}, "name": "conv2d_44", "inbound_nodes": [[["mixed4", 0, 0, {}]]]}, {"class_name": "BatchNormalization", "config": {"name": "batch_normalization_44", "trainable": false, "dtype": "float32", "axis": [3], "momentum": 0.99, "epsilon": 0.001, "center": true, "scale": false, "beta_initializer": {"module": "keras.initializers", "class_name": "Zeros", "config": {}, "registered_name": null}, "gamma_initializer": {"module": "keras.initializers", "class_name": "Ones", "config": {}, "registered_name": null}, "moving_mean_initializer": {"module": "keras.initializers", "class_name": "Zeros", "config": {}, "registered_name": null}, "moving_variance_initializer": {"module": "keras.initializers", "class_name": "Ones", "config": {}, "registered_name": null}, "beta_regularizer": null, "gamma_regularizer": null, "beta_constraint": null, "gamma_constraint": null}, "name": "batch_normalization_44", "inbound_nodes": [[["conv2d_44", 0, 0, {}]]]}, {"class_name": "Activation", "config": {"name": "activation_44", "trainable": false, "dtype": "float32", "activation": "relu"}, "name": "activation_44", "inbound_nodes": [[["batch_normalization_44", 0, 0, {}]]]}, {"class_name": "Conv2D", "config": {"name": "conv2d_45", "trainable": false, "dtype": "float32", "filters": 160, "kernel_size": [7, 1], "strides": [1, 1], "padding": "same", "data_format": "channels_last", "dilation_rate": [1, 1], "groups": 1, "activation": "linear", "use_bias": false, "kernel_initializer": {"module": "keras.initializers", "class_name": "GlorotUniform", "config": {"seed": null}, "registered_name": null}, "bias_initializer": {"module": "keras.initializers", "class_name": "Zeros", "config": {}, "registered_name": null}, "kernel_regularizer": null, "bias_regularizer": null, "activity_regularizer": null, "kernel_constraint": null, "bias_constraint": null}, "name": "conv2d_45", "inbound_nodes": [[["activation_44", 0, 0, {}]]]}, {"class_name": "BatchNormalization", "config": {"name": "batch_normalization_45", "trainable": false, "dtype": "float32", "axis": [3], "momentum": 0.99, "epsilon": 0.001, "center": true, "scale": false, "beta_initializer": {"module": "keras.initializers", "class_name": "Zeros", "config": {}, "registered_name": null}, "gamma_initializer": {"module": "keras.initializers", "class_name": "Ones", "config": {}, "registered_name": null}, "moving_mean_initializer": {"module": "keras.initializers", "class_name": "Zeros", "config": {}, "registered_name": null}, "moving_variance_initializer": {"module": "keras.initializers", "class_name": "Ones", "config": {}, "registered_name": null}, "beta_regularizer": null, "gamma_regularizer": null, "beta_constraint": null, "gamma_constraint": null}, "name": "batch_normalization_45", "inbound_nodes": [[["conv2d_45", 0, 0, {}]]]}, {"class_name": "Activation", "config": {"name": "activation_45", "trainable": false, "dtype": "float32", "activation": "relu"}, "name": "activation_45", "inbound_nodes": [[["batch_normalization_45", 0, 0, {}]]]}, {"class_name": "Conv2D", "config": {"name": "conv2d_41", "trainable": false, "dtype": "float32", "filters": 160, "kernel_size": [1, 1], "strides": [1, 1], "padding": "same", "data_format": "channels_last", "dilation_rate": [1, 1], "groups": 1, "activation": "linear", "use_bias": false, "kernel_initializer": {"module": "keras.initializers", "class_name": "GlorotUniform", "config": {"seed": null}, "registered_name": null}, "bias_initializer": {"module": "keras.initializers", "class_name": "Zeros", "config": {}, "registered_name": null}, "kernel_regularizer": null, "bias_regularizer": null, "activity_regularizer": null, "kernel_constraint": null, "bias_constraint": null}, "name": "conv2d_41", "inbound_nodes": [[["mixed4", 0, 0, {}]]]}, {"class_name": "Conv2D", "config": {"name": "conv2d_46", "trainable": false, "dtype": "float32", "filters": 160, "kernel_size": [1, 7], "strides": [1, 1], "padding": "same", "data_format": "channels_last", "dilation_rate": [1, 1], "groups": 1, "activation": "linear", "use_bias": false, "kernel_initializer": {"module": "keras.initializers", "class_name": "GlorotUniform", "config": {"seed": null}, "registered_name": null}, "bias_initializer": {"module": "keras.initializers", "class_name": "Zeros", "config": {}, "registered_name": null}, "kernel_regularizer": null, "bias_regularizer": null, "activity_regularizer": null, "kernel_constraint": null, "bias_constraint": null}, "name": "conv2d_46", "inbound_nodes": [[["activation_45", 0, 0, {}]]]}, {"class_name": "BatchNormalization", "config": {"name": "batch_normalization_41", "trainable": false, "dtype": "float32", "axis": [3], "momentum": 0.99, "epsilon": 0.001, "center": true, "scale": false, "beta_initializer": {"module": "keras.initializers", "class_name": "Zeros", "config": {}, "registered_name": null}, "gamma_initializer": {"module": "keras.initializers", "class_name": "Ones", "config": {}, "registered_name": null}, "moving_mean_initializer": {"module": "keras.initializers", "class_name": "Zeros", "config": {}, "registered_name": null}, "moving_variance_initializer": {"module": "keras.initializers", "class_name": "Ones", "config": {}, "registered_name": null}, "beta_regularizer": null, "gamma_regularizer": null, "beta_constraint": null, "gamma_constraint": null}, "name": "batch_normalization_41", "inbound_nodes": [[["conv2d_41", 0, 0, {}]]]}, {"class_name": "BatchNormalization", "config": {"name": "batch_normalization_46", "trainable": false, "dtype": "float32", "axis": [3], "momentum": 0.99, "epsilon": 0.001, "center": true, "scale": false, "beta_initializer": {"module": "keras.initializers", "class_name": "Zeros", "config": {}, "registered_name": null}, "gamma_initializer": {"module": "keras.initializers", "class_name": "Ones", "config": {}, "registered_name": null}, "moving_mean_initializer": {"module": "keras.initializers", "class_name": "Zeros", "config": {}, "registered_name": null}, "moving_variance_initializer": {"module": "keras.initializers", "class_name": "Ones", "config": {}, "registered_name": null}, "beta_regularizer": null, "gamma_regularizer": null, "beta_constraint": null, "gamma_constraint": null}, "name": "batch_normalization_46", "inbound_nodes": [[["conv2d_46", 0, 0, {}]]]}, {"class_name": "Activation", "config": {"name": "activation_41", "trainable": false, "dtype": "float32", "activation": "relu"}, "name": "activation_41", "inbound_nodes": [[["batch_normalization_41", 0, 0, {}]]]}, {"class_name": "Activation", "config": {"name": "activation_46", "trainable": false, "dtype": "float32", "activation": "relu"}, "name": "activation_46", "inbound_nodes": [[["batch_normalization_46", 0, 0, {}]]]}, {"class_name": "Conv2D", "config": {"name": "conv2d_42", "trainable": false, "dtype": "float32", "filters": 160, "kernel_size": [1, 7], "strides": [1, 1], "padding": "same", "data_format": "channels_last", "dilation_rate": [1, 1], "groups": 1, "activation": "linear", "use_bias": false, "kernel_initializer": {"module": "keras.initializers", "class_name": "GlorotUniform", "config": {"seed": null}, "registered_name": null}, "bias_initializer": {"module": "keras.initializers", "class_name": "Zeros", "config": {}, "registered_name": null}, "kernel_regularizer": null, "bias_regularizer": null, "activity_regularizer": null, "kernel_constraint": null, "bias_constraint": null}, "name": "conv2d_42", "inbound_nodes": [[["activation_41", 0, 0, {}]]]}, {"class_name": "Conv2D", "config": {"name": "conv2d_47", "trainable": false, "dtype": "float32", "filters": 160, "kernel_size": [7, 1], "strides": [1, 1], "padding": "same", "data_format": "channels_last", "dilation_rate": [1, 1], "groups": 1, "activation": "linear", "use_bias": false, "kernel_initializer": {"module": "keras.initializers", "class_name": "GlorotUniform", "config": {"seed": null}, "registered_name": null}, "bias_initializer": {"module": "keras.initializers", "class_name": "Zeros", "config": {}, "registered_name": null}, "kernel_regularizer": null, "bias_regularizer": null, "activity_regularizer": null, "kernel_constraint": null, "bias_constraint": null}, "name": "conv2d_47", "inbound_nodes": [[["activation_46", 0, 0, {}]]]}, {"class_name": "BatchNormalization", "config": {"name": "batch_normalization_42", "trainable": false, "dtype": "float32", "axis": [3], "momentum": 0.99, "epsilon": 0.001, "center": true, "scale": false, "beta_initializer": {"module": "keras.initializers", "class_name": "Zeros", "config": {}, "registered_name": null}, "gamma_initializer": {"module": "keras.initializers", "class_name": "Ones", "config": {}, "registered_name": null}, "moving_mean_initializer": {"module": "keras.initializers", "class_name": "Zeros", "config": {}, "registered_name": null}, "moving_variance_initializer": {"module": "keras.initializers", "class_name": "Ones", "config": {}, "registered_name": null}, "beta_regularizer": null, "gamma_regularizer": null, "beta_constraint": null, "gamma_constraint": null}, "name": "batch_normalization_42", "inbound_nodes": [[["conv2d_42", 0, 0, {}]]]}, {"class_name": "BatchNormalization", "config": {"name": "batch_normalization_47", "trainable": false, "dtype": "float32", "axis": [3], "momentum": 0.99, "epsilon": 0.001, "center": true, "scale": false, "beta_initializer": {"module": "keras.initializers", "class_name": "Zeros", "config": {}, "registered_name": null}, "gamma_initializer": {"module": "keras.initializers", "class_name": "Ones", "config": {}, "registered_name": null}, "moving_mean_initializer": {"module": "keras.initializers", "class_name": "Zeros", "config": {}, "registered_name": null}, "moving_variance_initializer": {"module": "keras.initializers", "class_name": "Ones", "config": {}, "registered_name": null}, "beta_regularizer": null, "gamma_regularizer": null, "beta_constraint": null, "gamma_constraint": null}, "name": "batch_normalization_47", "inbound_nodes": [[["conv2d_47", 0, 0, {}]]]}, {"class_name": "Activation", "config": {"name": "activation_42", "trainable": false, "dtype": "float32", "activation": "relu"}, "name": "activation_42", "inbound_nodes": [[["batch_normalization_42", 0, 0, {}]]]}, {"class_name": "Activation", "config": {"name": "activation_47", "trainable": false, "dtype": "float32", "activation": "relu"}, "name": "activation_47", "inbound_nodes": [[["batch_normalization_47", 0, 0, {}]]]}, {"class_name": "AveragePooling2D", "config": {"name": "average_pooling2d_4", "trainable": false, "dtype": "float32", "pool_size": [3, 3], "padding": "same", "strides": [1, 1], "data_format": "channels_last"}, "name": "average_pooling2d_4", "inbound_nodes": [[["mixed4", 0, 0, {}]]]}, {"class_name": "Conv2D", "config": {"name": "conv2d_40", "trainable": false, "dtype": "float32", "filters": 192, "kernel_size": [1, 1], "strides": [1, 1], "padding": "same", "data_format": "channels_last", "dilation_rate": [1, 1], "groups": 1, "activation": "linear", "use_bias": false, "kernel_initializer": {"module": "keras.initializers", "class_name": "GlorotUniform", "config": {"seed": null}, "registered_name": null}, "bias_initializer": {"module": "keras.initializers", "class_name": "Zeros", "config": {}, "registered_name": null}, "kernel_regularizer": null, "bias_regularizer": null, "activity_regularizer": null, "kernel_constraint": null, "bias_constraint": null}, "name": "conv2d_40", "inbound_nodes": [[["mixed4", 0, 0, {}]]]}, {"class_name": "Conv2D", "config": {"name": "conv2d_43", "trainable": false, "dtype": "float32", "filters": 192, "kernel_size": [7, 1], "strides": [1, 1], "padding": "same", "data_format": "channels_last", "dilation_rate": [1, 1], "groups": 1, "activation": "linear", "use_bias": false, "kernel_initializer": {"module": "keras.initializers", "class_name": "GlorotUniform", "config": {"seed": null}, "registered_name": null}, "bias_initializer": {"module": "keras.initializers", "class_name": "Zeros", "config": {}, "registered_name": null}, "kernel_regularizer": null, "bias_regularizer": null, "activity_regularizer": null, "kernel_constraint": null, "bias_constraint": null}, "name": "conv2d_43", "inbound_nodes": [[["activation_42", 0, 0, {}]]]}, {"class_name": "Conv2D", "config": {"name": "conv2d_48", "trainable": false, "dtype": "float32", "filters": 192, "kernel_size": [1, 7], "strides": [1, 1], "padding": "same", "data_format": "channels_last", "dilation_rate": [1, 1], "groups": 1, "activation": "linear", "use_bias": false, "kernel_initializer": {"module": "keras.initializers", "class_name": "GlorotUniform", "config": {"seed": null}, "registered_name": null}, "bias_initializer": {"module": "keras.initializers", "class_name": "Zeros", "config": {}, "registered_name": null}, "kernel_regularizer": null, "bias_regularizer": null, "activity_regularizer": null, "kernel_constraint": null, "bias_constraint": null}, "name": "conv2d_48", "inbound_nodes": [[["activation_47", 0, 0, {}]]]}, {"class_name": "Conv2D", "config": {"name": "conv2d_49", "trainable": false, "dtype": "float32", "filters": 192, "kernel_size": [1, 1], "strides": [1, 1], "padding": "same", "data_format": "channels_last", "dilation_rate": [1, 1], "groups": 1, "activation": "linear", "use_bias": false, "kernel_initializer": {"module": "keras.initializers", "class_name": "GlorotUniform", "config": {"seed": null}, "registered_name": null}, "bias_initializer": {"module": "keras.initializers", "class_name": "Zeros", "config": {}, "registered_name": null}, "kernel_regularizer": null, "bias_regularizer": null, "activity_regularizer": null, "kernel_constraint": null, "bias_constraint": null}, "name": "conv2d_49", "inbound_nodes": [[["average_pooling2d_4", 0, 0, {}]]]}, {"class_name": "BatchNormalization", "config": {"name": "batch_normalization_40", "trainable": false, "dtype": "float32", "axis": [3], "momentum": 0.99, "epsilon": 0.001, "center": true, "scale": false, "beta_initializer": {"module": "keras.initializers", "class_name": "Zeros", "config": {}, "registered_name": null}, "gamma_initializer": {"module": "keras.initializers", "class_name": "Ones", "config": {}, "registered_name": null}, "moving_mean_initializer": {"module": "keras.initializers", "class_name": "Zeros", "config": {}, "registered_name": null}, "moving_variance_initializer": {"module": "keras.initializers", "class_name": "Ones", "config": {}, "registered_name": null}, "beta_regularizer": null, "gamma_regularizer": null, "beta_constraint": null, "gamma_constraint": null}, "name": "batch_normalization_40", "inbound_nodes": [[["conv2d_40", 0, 0, {}]]]}, {"class_name": "BatchNormalization", "config": {"name": "batch_normalization_43", "trainable": false, "dtype": "float32", "axis": [3], "momentum": 0.99, "epsilon": 0.001, "center": true, "scale": false, "beta_initializer": {"module": "keras.initializers", "class_name": "Zeros", "config": {}, "registered_name": null}, "gamma_initializer": {"module": "keras.initializers", "class_name": "Ones", "config": {}, "registered_name": null}, "moving_mean_initializer": {"module": "keras.initializers", "class_name": "Zeros", "config": {}, "registered_name": null}, "moving_variance_initializer": {"module": "keras.initializers", "class_name": "Ones", "config": {}, "registered_name": null}, "beta_regularizer": null, "gamma_regularizer": null, "beta_constraint": null, "gamma_constraint": null}, "name": "batch_normalization_43", "inbound_nodes": [[["conv2d_43", 0, 0, {}]]]}, {"class_name": "BatchNormalization", "config": {"name": "batch_normalization_48", "trainable": false, "dtype": "float32", "axis": [3], "momentum": 0.99, "epsilon": 0.001, "center": true, "scale": false, "beta_initializer": {"module": "keras.initializers", "class_name": "Zeros", "config": {}, "registered_name": null}, "gamma_initializer": {"module": "keras.initializers", "class_name": "Ones", "config": {}, "registered_name": null}, "moving_mean_initializer": {"module": "keras.initializers", "class_name": "Zeros", "config": {}, "registered_name": null}, "moving_variance_initializer": {"module": "keras.initializers", "class_name": "Ones", "config": {}, "registered_name": null}, "beta_regularizer": null, "gamma_regularizer": null, "beta_constraint": null, "gamma_constraint": null}, "name": "batch_normalization_48", "inbound_nodes": [[["conv2d_48", 0, 0, {}]]]}, {"class_name": "BatchNormalization", "config": {"name": "batch_normalization_49", "trainable": false, "dtype": "float32", "axis": [3], "momentum": 0.99, "epsilon": 0.001, "center": true, "scale": false, "beta_initializer": {"module": "keras.initializers", "class_name": "Zeros", "config": {}, "registered_name": null}, "gamma_initializer": {"module": "keras.initializers", "class_name": "Ones", "config": {}, "registered_name": null}, "moving_mean_initializer": {"module": "keras.initializers", "class_name": "Zeros", "config": {}, "registered_name": null}, "moving_variance_initializer": {"module": "keras.initializers", "class_name": "Ones", "config": {}, "registered_name": null}, "beta_regularizer": null, "gamma_regularizer": null, "beta_constraint": null, "gamma_constraint": null}, "name": "batch_normalization_49", "inbound_nodes": [[["conv2d_49", 0, 0, {}]]]}, {"class_name": "Activation", "config": {"name": "activation_40", "trainable": false, "dtype": "float32", "activation": "relu"}, "name": "activation_40", "inbound_nodes": [[["batch_normalization_40", 0, 0, {}]]]}, {"class_name": "Activation", "config": {"name": "activation_43", "trainable": false, "dtype": "float32", "activation": "relu"}, "name": "activation_43", "inbound_nodes": [[["batch_normalization_43", 0, 0, {}]]]}, {"class_name": "Activation", "config": {"name": "activation_48", "trainable": false, "dtype": "float32", "activation": "relu"}, "name": "activation_48", "inbound_nodes": [[["batch_normalization_48", 0, 0, {}]]]}, {"class_name": "Activation", "config": {"name": "activation_49", "trainable": false, "dtype": "float32", "activation": "relu"}, "name": "activation_49", "inbound_nodes": [[["batch_normalization_49", 0, 0, {}]]]}, {"class_name": "Concatenate", "config": {"name": "mixed5", "trainable": false, "dtype": "float32", "axis": 3}, "name": "mixed5", "inbound_nodes": [[["activation_40", 0, 0, {}], ["activation_43", 0, 0, {}], ["activation_48", 0, 0, {}], ["activation_49", 0, 0, {}]]]}, {"class_name": "Conv2D", "config": {"name": "conv2d_54", "trainable": false, "dtype": "float32", "filters": 160, "kernel_size": [1, 1], "strides": [1, 1], "padding": "same", "data_format": "channels_last", "dilation_rate": [1, 1], "groups": 1, "activation": "linear", "use_bias": false, "kernel_initializer": {"module": "keras.initializers", "class_name": "GlorotUniform", "config": {"seed": null}, "registered_name": null}, "bias_initializer": {"module": "keras.initializers", "class_name": "Zeros", "config": {}, "registered_name": null}, "kernel_regularizer": null, "bias_regularizer": null, "activity_regularizer": null, "kernel_constraint": null, "bias_constraint": null}, "name": "conv2d_54", "inbound_nodes": [[["mixed5", 0, 0, {}]]]}, {"class_name": "BatchNormalization", "config": {"name": "batch_normalization_54", "trainable": false, "dtype": "float32", "axis": [3], "momentum": 0.99, "epsilon": 0.001, "center": true, "scale": false, "beta_initializer": {"module": "keras.initializers", "class_name": "Zeros", "config": {}, "registered_name": null}, "gamma_initializer": {"module": "keras.initializers", "class_name": "Ones", "config": {}, "registered_name": null}, "moving_mean_initializer": {"module": "keras.initializers", "class_name": "Zeros", "config": {}, "registered_name": null}, "moving_variance_initializer": {"module": "keras.initializers", "class_name": "Ones", "config": {}, "registered_name": null}, "beta_regularizer": null, "gamma_regularizer": null, "beta_constraint": null, "gamma_constraint": null}, "name": "batch_normalization_54", "inbound_nodes": [[["conv2d_54", 0, 0, {}]]]}, {"class_name": "Activation", "config": {"name": "activation_54", "trainable": false, "dtype": "float32", "activation": "relu"}, "name": "activation_54", "inbound_nodes": [[["batch_normalization_54", 0, 0, {}]]]}, {"class_name": "Conv2D", "config": {"name": "conv2d_55", "trainable": false, "dtype": "float32", "filters": 160, "kernel_size": [7, 1], "strides": [1, 1], "padding": "same", "data_format": "channels_last", "dilation_rate": [1, 1], "groups": 1, "activation": "linear", "use_bias": false, "kernel_initializer": {"module": "keras.initializers", "class_name": "GlorotUniform", "config": {"seed": null}, "registered_name": null}, "bias_initializer": {"module": "keras.initializers", "class_name": "Zeros", "config": {}, "registered_name": null}, "kernel_regularizer": null, "bias_regularizer": null, "activity_regularizer": null, "kernel_constraint": null, "bias_constraint": null}, "name": "conv2d_55", "inbound_nodes": [[["activation_54", 0, 0, {}]]]}, {"class_name": "BatchNormalization", "config": {"name": "batch_normalization_55", "trainable": false, "dtype": "float32", "axis": [3], "momentum": 0.99, "epsilon": 0.001, "center": true, "scale": false, "beta_initializer": {"module": "keras.initializers", "class_name": "Zeros", "config": {}, "registered_name": null}, "gamma_initializer": {"module": "keras.initializers", "class_name": "Ones", "config": {}, "registered_name": null}, "moving_mean_initializer": {"module": "keras.initializers", "class_name": "Zeros", "config": {}, "registered_name": null}, "moving_variance_initializer": {"module": "keras.initializers", "class_name": "Ones", "config": {}, "registered_name": null}, "beta_regularizer": null, "gamma_regularizer": null, "beta_constraint": null, "gamma_constraint": null}, "name": "batch_normalization_55", "inbound_nodes": [[["conv2d_55", 0, 0, {}]]]}, {"class_name": "Activation", "config": {"name": "activation_55", "trainable": false, "dtype": "float32", "activation": "relu"}, "name": "activation_55", "inbound_nodes": [[["batch_normalization_55", 0, 0, {}]]]}, {"class_name": "Conv2D", "config": {"name": "conv2d_51", "trainable": false, "dtype": "float32", "filters": 160, "kernel_size": [1, 1], "strides": [1, 1], "padding": "same", "data_format": "channels_last", "dilation_rate": [1, 1], "groups": 1, "activation": "linear", "use_bias": false, "kernel_initializer": {"module": "keras.initializers", "class_name": "GlorotUniform", "config": {"seed": null}, "registered_name": null}, "bias_initializer": {"module": "keras.initializers", "class_name": "Zeros", "config": {}, "registered_name": null}, "kernel_regularizer": null, "bias_regularizer": null, "activity_regularizer": null, "kernel_constraint": null, "bias_constraint": null}, "name": "conv2d_51", "inbound_nodes": [[["mixed5", 0, 0, {}]]]}, {"class_name": "Conv2D", "config": {"name": "conv2d_56", "trainable": false, "dtype": "float32", "filters": 160, "kernel_size": [1, 7], "strides": [1, 1], "padding": "same", "data_format": "channels_last", "dilation_rate": [1, 1], "groups": 1, "activation": "linear", "use_bias": false, "kernel_initializer": {"module": "keras.initializers", "class_name": "GlorotUniform", "config": {"seed": null}, "registered_name": null}, "bias_initializer": {"module": "keras.initializers", "class_name": "Zeros", "config": {}, "registered_name": null}, "kernel_regularizer": null, "bias_regularizer": null, "activity_regularizer": null, "kernel_constraint": null, "bias_constraint": null}, "name": "conv2d_56", "inbound_nodes": [[["activation_55", 0, 0, {}]]]}, {"class_name": "BatchNormalization", "config": {"name": "batch_normalization_51", "trainable": false, "dtype": "float32", "axis": [3], "momentum": 0.99, "epsilon": 0.001, "center": true, "scale": false, "beta_initializer": {"module": "keras.initializers", "class_name": "Zeros", "config": {}, "registered_name": null}, "gamma_initializer": {"module": "keras.initializers", "class_name": "Ones", "config": {}, "registered_name": null}, "moving_mean_initializer": {"module": "keras.initializers", "class_name": "Zeros", "config": {}, "registered_name": null}, "moving_variance_initializer": {"module": "keras.initializers", "class_name": "Ones", "config": {}, "registered_name": null}, "beta_regularizer": null, "gamma_regularizer": null, "beta_constraint": null, "gamma_constraint": null}, "name": "batch_normalization_51", "inbound_nodes": [[["conv2d_51", 0, 0, {}]]]}, {"class_name": "BatchNormalization", "config": {"name": "batch_normalization_56", "trainable": false, "dtype": "float32", "axis": [3], "momentum": 0.99, "epsilon": 0.001, "center": true, "scale": false, "beta_initializer": {"module": "keras.initializers", "class_name": "Zeros", "config": {}, "registered_name": null}, "gamma_initializer": {"module": "keras.initializers", "class_name": "Ones", "config": {}, "registered_name": null}, "moving_mean_initializer": {"module": "keras.initializers", "class_name": "Zeros", "config": {}, "registered_name": null}, "moving_variance_initializer": {"module": "keras.initializers", "class_name": "Ones", "config": {}, "registered_name": null}, "beta_regularizer": null, "gamma_regularizer": null, "beta_constraint": null, "gamma_constraint": null}, "name": "batch_normalization_56", "inbound_nodes": [[["conv2d_56", 0, 0, {}]]]}, {"class_name": "Activation", "config": {"name": "activation_51", "trainable": false, "dtype": "float32", "activation": "relu"}, "name": "activation_51", "inbound_nodes": [[["batch_normalization_51", 0, 0, {}]]]}, {"class_name": "Activation", "config": {"name": "activation_56", "trainable": false, "dtype": "float32", "activation": "relu"}, "name": "activation_56", "inbound_nodes": [[["batch_normalization_56", 0, 0, {}]]]}, {"class_name": "Conv2D", "config": {"name": "conv2d_52", "trainable": false, "dtype": "float32", "filters": 160, "kernel_size": [1, 7], "strides": [1, 1], "padding": "same", "data_format": "channels_last", "dilation_rate": [1, 1], "groups": 1, "activation": "linear", "use_bias": false, "kernel_initializer": {"module": "keras.initializers", "class_name": "GlorotUniform", "config": {"seed": null}, "registered_name": null}, "bias_initializer": {"module": "keras.initializers", "class_name": "Zeros", "config": {}, "registered_name": null}, "kernel_regularizer": null, "bias_regularizer": null, "activity_regularizer": null, "kernel_constraint": null, "bias_constraint": null}, "name": "conv2d_52", "inbound_nodes": [[["activation_51", 0, 0, {}]]]}, {"class_name": "Conv2D", "config": {"name": "conv2d_57", "trainable": false, "dtype": "float32", "filters": 160, "kernel_size": [7, 1], "strides": [1, 1], "padding": "same", "data_format": "channels_last", "dilation_rate": [1, 1], "groups": 1, "activation": "linear", "use_bias": false, "kernel_initializer": {"module": "keras.initializers", "class_name": "GlorotUniform", "config": {"seed": null}, "registered_name": null}, "bias_initializer": {"module": "keras.initializers", "class_name": "Zeros", "config": {}, "registered_name": null}, "kernel_regularizer": null, "bias_regularizer": null, "activity_regularizer": null, "kernel_constraint": null, "bias_constraint": null}, "name": "conv2d_57", "inbound_nodes": [[["activation_56", 0, 0, {}]]]}, {"class_name": "BatchNormalization", "config": {"name": "batch_normalization_52", "trainable": false, "dtype": "float32", "axis": [3], "momentum": 0.99, "epsilon": 0.001, "center": true, "scale": false, "beta_initializer": {"module": "keras.initializers", "class_name": "Zeros", "config": {}, "registered_name": null}, "gamma_initializer": {"module": "keras.initializers", "class_name": "Ones", "config": {}, "registered_name": null}, "moving_mean_initializer": {"module": "keras.initializers", "class_name": "Zeros", "config": {}, "registered_name": null}, "moving_variance_initializer": {"module": "keras.initializers", "class_name": "Ones", "config": {}, "registered_name": null}, "beta_regularizer": null, "gamma_regularizer": null, "beta_constraint": null, "gamma_constraint": null}, "name": "batch_normalization_52", "inbound_nodes": [[["conv2d_52", 0, 0, {}]]]}, {"class_name": "BatchNormalization", "config": {"name": "batch_normalization_57", "trainable": false, "dtype": "float32", "axis": [3], "momentum": 0.99, "epsilon": 0.001, "center": true, "scale": false, "beta_initializer": {"module": "keras.initializers", "class_name": "Zeros", "config": {}, "registered_name": null}, "gamma_initializer": {"module": "keras.initializers", "class_name": "Ones", "config": {}, "registered_name": null}, "moving_mean_initializer": {"module": "keras.initializers", "class_name": "Zeros", "config": {}, "registered_name": null}, "moving_variance_initializer": {"module": "keras.initializers", "class_name": "Ones", "config": {}, "registered_name": null}, "beta_regularizer": null, "gamma_regularizer": null, "beta_constraint": null, "gamma_constraint": null}, "name": "batch_normalization_57", "inbound_nodes": [[["conv2d_57", 0, 0, {}]]]}, {"class_name": "Activation", "config": {"name": "activation_52", "trainable": false, "dtype": "float32", "activation": "relu"}, "name": "activation_52", "inbound_nodes": [[["batch_normalization_52", 0, 0, {}]]]}, {"class_name": "Activation", "config": {"name": "activation_57", "trainable": false, "dtype": "float32", "activation": "relu"}, "name": "activation_57", "inbound_nodes": [[["batch_normalization_57", 0, 0, {}]]]}, {"class_name": "AveragePooling2D", "config": {"name": "average_pooling2d_5", "trainable": false, "dtype": "float32", "pool_size": [3, 3], "padding": "same", "strides": [1, 1], "data_format": "channels_last"}, "name": "average_pooling2d_5", "inbound_nodes": [[["mixed5", 0, 0, {}]]]}, {"class_name": "Conv2D", "config": {"name": "conv2d_50", "trainable": false, "dtype": "float32", "filters": 192, "kernel_size": [1, 1], "strides": [1, 1], "padding": "same", "data_format": "channels_last", "dilation_rate": [1, 1], "groups": 1, "activation": "linear", "use_bias": false, "kernel_initializer": {"module": "keras.initializers", "class_name": "GlorotUniform", "config": {"seed": null}, "registered_name": null}, "bias_initializer": {"module": "keras.initializers", "class_name": "Zeros", "config": {}, "registered_name": null}, "kernel_regularizer": null, "bias_regularizer": null, "activity_regularizer": null, "kernel_constraint": null, "bias_constraint": null}, "name": "conv2d_50", "inbound_nodes": [[["mixed5", 0, 0, {}]]]}, {"class_name": "Conv2D", "config": {"name": "conv2d_53", "trainable": false, "dtype": "float32", "filters": 192, "kernel_size": [7, 1], "strides": [1, 1], "padding": "same", "data_format": "channels_last", "dilation_rate": [1, 1], "groups": 1, "activation": "linear", "use_bias": false, "kernel_initializer": {"module": "keras.initializers", "class_name": "GlorotUniform", "config": {"seed": null}, "registered_name": null}, "bias_initializer": {"module": "keras.initializers", "class_name": "Zeros", "config": {}, "registered_name": null}, "kernel_regularizer": null, "bias_regularizer": null, "activity_regularizer": null, "kernel_constraint": null, "bias_constraint": null}, "name": "conv2d_53", "inbound_nodes": [[["activation_52", 0, 0, {}]]]}, {"class_name": "Conv2D", "config": {"name": "conv2d_58", "trainable": false, "dtype": "float32", "filters": 192, "kernel_size": [1, 7], "strides": [1, 1], "padding": "same", "data_format": "channels_last", "dilation_rate": [1, 1], "groups": 1, "activation": "linear", "use_bias": false, "kernel_initializer": {"module": "keras.initializers", "class_name": "GlorotUniform", "config": {"seed": null}, "registered_name": null}, "bias_initializer": {"module": "keras.initializers", "class_name": "Zeros", "config": {}, "registered_name": null}, "kernel_regularizer": null, "bias_regularizer": null, "activity_regularizer": null, "kernel_constraint": null, "bias_constraint": null}, "name": "conv2d_58", "inbound_nodes": [[["activation_57", 0, 0, {}]]]}, {"class_name": "Conv2D", "config": {"name": "conv2d_59", "trainable": false, "dtype": "float32", "filters": 192, "kernel_size": [1, 1], "strides": [1, 1], "padding": "same", "data_format": "channels_last", "dilation_rate": [1, 1], "groups": 1, "activation": "linear", "use_bias": false, "kernel_initializer": {"module": "keras.initializers", "class_name": "GlorotUniform", "config": {"seed": null}, "registered_name": null}, "bias_initializer": {"module": "keras.initializers", "class_name": "Zeros", "config": {}, "registered_name": null}, "kernel_regularizer": null, "bias_regularizer": null, "activity_regularizer": null, "kernel_constraint": null, "bias_constraint": null}, "name": "conv2d_59", "inbound_nodes": [[["average_pooling2d_5", 0, 0, {}]]]}, {"class_name": "BatchNormalization", "config": {"name": "batch_normalization_50", "trainable": false, "dtype": "float32", "axis": [3], "momentum": 0.99, "epsilon": 0.001, "center": true, "scale": false, "beta_initializer": {"module": "keras.initializers", "class_name": "Zeros", "config": {}, "registered_name": null}, "gamma_initializer": {"module": "keras.initializers", "class_name": "Ones", "config": {}, "registered_name": null}, "moving_mean_initializer": {"module": "keras.initializers", "class_name": "Zeros", "config": {}, "registered_name": null}, "moving_variance_initializer": {"module": "keras.initializers", "class_name": "Ones", "config": {}, "registered_name": null}, "beta_regularizer": null, "gamma_regularizer": null, "beta_constraint": null, "gamma_constraint": null}, "name": "batch_normalization_50", "inbound_nodes": [[["conv2d_50", 0, 0, {}]]]}, {"class_name": "BatchNormalization", "config": {"name": "batch_normalization_53", "trainable": false, "dtype": "float32", "axis": [3], "momentum": 0.99, "epsilon": 0.001, "center": true, "scale": false, "beta_initializer": {"module": "keras.initializers", "class_name": "Zeros", "config": {}, "registered_name": null}, "gamma_initializer": {"module": "keras.initializers", "class_name": "Ones", "config": {}, "registered_name": null}, "moving_mean_initializer": {"module": "keras.initializers", "class_name": "Zeros", "config": {}, "registered_name": null}, "moving_variance_initializer": {"module": "keras.initializers", "class_name": "Ones", "config": {}, "registered_name": null}, "beta_regularizer": null, "gamma_regularizer": null, "beta_constraint": null, "gamma_constraint": null}, "name": "batch_normalization_53", "inbound_nodes": [[["conv2d_53", 0, 0, {}]]]}, {"class_name": "BatchNormalization", "config": {"name": "batch_normalization_58", "trainable": false, "dtype": "float32", "axis": [3], "momentum": 0.99, "epsilon": 0.001, "center": true, "scale": false, "beta_initializer": {"module": "keras.initializers", "class_name": "Zeros", "config": {}, "registered_name": null}, "gamma_initializer": {"module": "keras.initializers", "class_name": "Ones", "config": {}, "registered_name": null}, "moving_mean_initializer": {"module": "keras.initializers", "class_name": "Zeros", "config": {}, "registered_name": null}, "moving_variance_initializer": {"module": "keras.initializers", "class_name": "Ones", "config": {}, "registered_name": null}, "beta_regularizer": null, "gamma_regularizer": null, "beta_constraint": null, "gamma_constraint": null}, "name": "batch_normalization_58", "inbound_nodes": [[["conv2d_58", 0, 0, {}]]]}, {"class_name": "BatchNormalization", "config": {"name": "batch_normalization_59", "trainable": false, "dtype": "float32", "axis": [3], "momentum": 0.99, "epsilon": 0.001, "center": true, "scale": false, "beta_initializer": {"module": "keras.initializers", "class_name": "Zeros", "config": {}, "registered_name": null}, "gamma_initializer": {"module": "keras.initializers", "class_name": "Ones", "config": {}, "registered_name": null}, "moving_mean_initializer": {"module": "keras.initializers", "class_name": "Zeros", "config": {}, "registered_name": null}, "moving_variance_initializer": {"module": "keras.initializers", "class_name": "Ones", "config": {}, "registered_name": null}, "beta_regularizer": null, "gamma_regularizer": null, "beta_constraint": null, "gamma_constraint": null}, "name": "batch_normalization_59", "inbound_nodes": [[["conv2d_59", 0, 0, {}]]]}, {"class_name": "Activation", "config": {"name": "activation_50", "trainable": false, "dtype": "float32", "activation": "relu"}, "name": "activation_50", "inbound_nodes": [[["batch_normalization_50", 0, 0, {}]]]}, {"class_name": "Activation", "config": {"name": "activation_53", "trainable": false, "dtype": "float32", "activation": "relu"}, "name": "activation_53", "inbound_nodes": [[["batch_normalization_53", 0, 0, {}]]]}, {"class_name": "Activation", "config": {"name": "activation_58", "trainable": false, "dtype": "float32", "activation": "relu"}, "name": "activation_58", "inbound_nodes": [[["batch_normalization_58", 0, 0, {}]]]}, {"class_name": "Activation", "config": {"name": "activation_59", "trainable": false, "dtype": "float32", "activation": "relu"}, "name": "activation_59", "inbound_nodes": [[["batch_normalization_59", 0, 0, {}]]]}, {"class_name": "Concatenate", "config": {"name": "mixed6", "trainable": false, "dtype": "float32", "axis": 3}, "name": "mixed6", "inbound_nodes": [[["activation_50", 0, 0, {}], ["activation_53", 0, 0, {}], ["activation_58", 0, 0, {}], ["activation_59", 0, 0, {}]]]}, {"class_name": "Conv2D", "config": {"name": "conv2d_64", "trainable": false, "dtype": "float32", "filters": 192, "kernel_size": [1, 1], "strides": [1, 1], "padding": "same", "data_format": "channels_last", "dilation_rate": [1, 1], "groups": 1, "activation": "linear", "use_bias": false, "kernel_initializer": {"module": "keras.initializers", "class_name": "GlorotUniform", "config": {"seed": null}, "registered_name": null}, "bias_initializer": {"module": "keras.initializers", "class_name": "Zeros", "config": {}, "registered_name": null}, "kernel_regularizer": null, "bias_regularizer": null, "activity_regularizer": null, "kernel_constraint": null, "bias_constraint": null}, "name": "conv2d_64", "inbound_nodes": [[["mixed6", 0, 0, {}]]]}, {"class_name": "BatchNormalization", "config": {"name": "batch_normalization_64", "trainable": false, "dtype": "float32", "axis": [3], "momentum": 0.99, "epsilon": 0.001, "center": true, "scale": false, "beta_initializer": {"module": "keras.initializers", "class_name": "Zeros", "config": {}, "registered_name": null}, "gamma_initializer": {"module": "keras.initializers", "class_name": "Ones", "config": {}, "registered_name": null}, "moving_mean_initializer": {"module": "keras.initializers", "class_name": "Zeros", "config": {}, "registered_name": null}, "moving_variance_initializer": {"module": "keras.initializers", "class_name": "Ones", "config": {}, "registered_name": null}, "beta_regularizer": null, "gamma_regularizer": null, "beta_constraint": null, "gamma_constraint": null}, "name": "batch_normalization_64", "inbound_nodes": [[["conv2d_64", 0, 0, {}]]]}, {"class_name": "Activation", "config": {"name": "activation_64", "trainable": false, "dtype": "float32", "activation": "relu"}, "name": "activation_64", "inbound_nodes": [[["batch_normalization_64", 0, 0, {}]]]}, {"class_name": "Conv2D", "config": {"name": "conv2d_65", "trainable": false, "dtype": "float32", "filters": 192, "kernel_size": [7, 1], "strides": [1, 1], "padding": "same", "data_format": "channels_last", "dilation_rate": [1, 1], "groups": 1, "activation": "linear", "use_bias": false, "kernel_initializer": {"module": "keras.initializers", "class_name": "GlorotUniform", "config": {"seed": null}, "registered_name": null}, "bias_initializer": {"module": "keras.initializers", "class_name": "Zeros", "config": {}, "registered_name": null}, "kernel_regularizer": null, "bias_regularizer": null, "activity_regularizer": null, "kernel_constraint": null, "bias_constraint": null}, "name": "conv2d_65", "inbound_nodes": [[["activation_64", 0, 0, {}]]]}, {"class_name": "BatchNormalization", "config": {"name": "batch_normalization_65", "trainable": false, "dtype": "float32", "axis": [3], "momentum": 0.99, "epsilon": 0.001, "center": true, "scale": false, "beta_initializer": {"module": "keras.initializers", "class_name": "Zeros", "config": {}, "registered_name": null}, "gamma_initializer": {"module": "keras.initializers", "class_name": "Ones", "config": {}, "registered_name": null}, "moving_mean_initializer": {"module": "keras.initializers", "class_name": "Zeros", "config": {}, "registered_name": null}, "moving_variance_initializer": {"module": "keras.initializers", "class_name": "Ones", "config": {}, "registered_name": null}, "beta_regularizer": null, "gamma_regularizer": null, "beta_constraint": null, "gamma_constraint": null}, "name": "batch_normalization_65", "inbound_nodes": [[["conv2d_65", 0, 0, {}]]]}, {"class_name": "Activation", "config": {"name": "activation_65", "trainable": false, "dtype": "float32", "activation": "relu"}, "name": "activation_65", "inbound_nodes": [[["batch_normalization_65", 0, 0, {}]]]}, {"class_name": "Conv2D", "config": {"name": "conv2d_61", "trainable": false, "dtype": "float32", "filters": 192, "kernel_size": [1, 1], "strides": [1, 1], "padding": "same", "data_format": "channels_last", "dilation_rate": [1, 1], "groups": 1, "activation": "linear", "use_bias": false, "kernel_initializer": {"module": "keras.initializers", "class_name": "GlorotUniform", "config": {"seed": null}, "registered_name": null}, "bias_initializer": {"module": "keras.initializers", "class_name": "Zeros", "config": {}, "registered_name": null}, "kernel_regularizer": null, "bias_regularizer": null, "activity_regularizer": null, "kernel_constraint": null, "bias_constraint": null}, "name": "conv2d_61", "inbound_nodes": [[["mixed6", 0, 0, {}]]]}, {"class_name": "Conv2D", "config": {"name": "conv2d_66", "trainable": false, "dtype": "float32", "filters": 192, "kernel_size": [1, 7], "strides": [1, 1], "padding": "same", "data_format": "channels_last", "dilation_rate": [1, 1], "groups": 1, "activation": "linear", "use_bias": false, "kernel_initializer": {"module": "keras.initializers", "class_name": "GlorotUniform", "config": {"seed": null}, "registered_name": null}, "bias_initializer": {"module": "keras.initializers", "class_name": "Zeros", "config": {}, "registered_name": null}, "kernel_regularizer": null, "bias_regularizer": null, "activity_regularizer": null, "kernel_constraint": null, "bias_constraint": null}, "name": "conv2d_66", "inbound_nodes": [[["activation_65", 0, 0, {}]]]}, {"class_name": "BatchNormalization", "config": {"name": "batch_normalization_61", "trainable": false, "dtype": "float32", "axis": [3], "momentum": 0.99, "epsilon": 0.001, "center": true, "scale": false, "beta_initializer": {"module": "keras.initializers", "class_name": "Zeros", "config": {}, "registered_name": null}, "gamma_initializer": {"module": "keras.initializers", "class_name": "Ones", "config": {}, "registered_name": null}, "moving_mean_initializer": {"module": "keras.initializers", "class_name": "Zeros", "config": {}, "registered_name": null}, "moving_variance_initializer": {"module": "keras.initializers", "class_name": "Ones", "config": {}, "registered_name": null}, "beta_regularizer": null, "gamma_regularizer": null, "beta_constraint": null, "gamma_constraint": null}, "name": "batch_normalization_61", "inbound_nodes": [[["conv2d_61", 0, 0, {}]]]}, {"class_name": "BatchNormalization", "config": {"name": "batch_normalization_66", "trainable": false, "dtype": "float32", "axis": [3], "momentum": 0.99, "epsilon": 0.001, "center": true, "scale": false, "beta_initializer": {"module": "keras.initializers", "class_name": "Zeros", "config": {}, "registered_name": null}, "gamma_initializer": {"module": "keras.initializers", "class_name": "Ones", "config": {}, "registered_name": null}, "moving_mean_initializer": {"module": "keras.initializers", "class_name": "Zeros", "config": {}, "registered_name": null}, "moving_variance_initializer": {"module": "keras.initializers", "class_name": "Ones", "config": {}, "registered_name": null}, "beta_regularizer": null, "gamma_regularizer": null, "beta_constraint": null, "gamma_constraint": null}, "name": "batch_normalization_66", "inbound_nodes": [[["conv2d_66", 0, 0, {}]]]}, {"class_name": "Activation", "config": {"name": "activation_61", "trainable": false, "dtype": "float32", "activation": "relu"}, "name": "activation_61", "inbound_nodes": [[["batch_normalization_61", 0, 0, {}]]]}, {"class_name": "Activation", "config": {"name": "activation_66", "trainable": false, "dtype": "float32", "activation": "relu"}, "name": "activation_66", "inbound_nodes": [[["batch_normalization_66", 0, 0, {}]]]}, {"class_name": "Conv2D", "config": {"name": "conv2d_62", "trainable": false, "dtype": "float32", "filters": 192, "kernel_size": [1, 7], "strides": [1, 1], "padding": "same", "data_format": "channels_last", "dilation_rate": [1, 1], "groups": 1, "activation": "linear", "use_bias": false, "kernel_initializer": {"module": "keras.initializers", "class_name": "GlorotUniform", "config": {"seed": null}, "registered_name": null}, "bias_initializer": {"module": "keras.initializers", "class_name": "Zeros", "config": {}, "registered_name": null}, "kernel_regularizer": null, "bias_regularizer": null, "activity_regularizer": null, "kernel_constraint": null, "bias_constraint": null}, "name": "conv2d_62", "inbound_nodes": [[["activation_61", 0, 0, {}]]]}, {"class_name": "Conv2D", "config": {"name": "conv2d_67", "trainable": false, "dtype": "float32", "filters": 192, "kernel_size": [7, 1], "strides": [1, 1], "padding": "same", "data_format": "channels_last", "dilation_rate": [1, 1], "groups": 1, "activation": "linear", "use_bias": false, "kernel_initializer": {"module": "keras.initializers", "class_name": "GlorotUniform", "config": {"seed": null}, "registered_name": null}, "bias_initializer": {"module": "keras.initializers", "class_name": "Zeros", "config": {}, "registered_name": null}, "kernel_regularizer": null, "bias_regularizer": null, "activity_regularizer": null, "kernel_constraint": null, "bias_constraint": null}, "name": "conv2d_67", "inbound_nodes": [[["activation_66", 0, 0, {}]]]}, {"class_name": "BatchNormalization", "config": {"name": "batch_normalization_62", "trainable": false, "dtype": "float32", "axis": [3], "momentum": 0.99, "epsilon": 0.001, "center": true, "scale": false, "beta_initializer": {"module": "keras.initializers", "class_name": "Zeros", "config": {}, "registered_name": null}, "gamma_initializer": {"module": "keras.initializers", "class_name": "Ones", "config": {}, "registered_name": null}, "moving_mean_initializer": {"module": "keras.initializers", "class_name": "Zeros", "config": {}, "registered_name": null}, "moving_variance_initializer": {"module": "keras.initializers", "class_name": "Ones", "config": {}, "registered_name": null}, "beta_regularizer": null, "gamma_regularizer": null, "beta_constraint": null, "gamma_constraint": null}, "name": "batch_normalization_62", "inbound_nodes": [[["conv2d_62", 0, 0, {}]]]}, {"class_name": "BatchNormalization", "config": {"name": "batch_normalization_67", "trainable": false, "dtype": "float32", "axis": [3], "momentum": 0.99, "epsilon": 0.001, "center": true, "scale": false, "beta_initializer": {"module": "keras.initializers", "class_name": "Zeros", "config": {}, "registered_name": null}, "gamma_initializer": {"module": "keras.initializers", "class_name": "Ones", "config": {}, "registered_name": null}, "moving_mean_initializer": {"module": "keras.initializers", "class_name": "Zeros", "config": {}, "registered_name": null}, "moving_variance_initializer": {"module": "keras.initializers", "class_name": "Ones", "config": {}, "registered_name": null}, "beta_regularizer": null, "gamma_regularizer": null, "beta_constraint": null, "gamma_constraint": null}, "name": "batch_normalization_67", "inbound_nodes": [[["conv2d_67", 0, 0, {}]]]}, {"class_name": "Activation", "config": {"name": "activation_62", "trainable": false, "dtype": "float32", "activation": "relu"}, "name": "activation_62", "inbound_nodes": [[["batch_normalization_62", 0, 0, {}]]]}, {"class_name": "Activation", "config": {"name": "activation_67", "trainable": false, "dtype": "float32", "activation": "relu"}, "name": "activation_67", "inbound_nodes": [[["batch_normalization_67", 0, 0, {}]]]}, {"class_name": "AveragePooling2D", "config": {"name": "average_pooling2d_6", "trainable": false, "dtype": "float32", "pool_size": [3, 3], "padding": "same", "strides": [1, 1], "data_format": "channels_last"}, "name": "average_pooling2d_6", "inbound_nodes": [[["mixed6", 0, 0, {}]]]}, {"class_name": "Conv2D", "config": {"name": "conv2d_60", "trainable": false, "dtype": "float32", "filters": 192, "kernel_size": [1, 1], "strides": [1, 1], "padding": "same", "data_format": "channels_last", "dilation_rate": [1, 1], "groups": 1, "activation": "linear", "use_bias": false, "kernel_initializer": {"module": "keras.initializers", "class_name": "GlorotUniform", "config": {"seed": null}, "registered_name": null}, "bias_initializer": {"module": "keras.initializers", "class_name": "Zeros", "config": {}, "registered_name": null}, "kernel_regularizer": null, "bias_regularizer": null, "activity_regularizer": null, "kernel_constraint": null, "bias_constraint": null}, "name": "conv2d_60", "inbound_nodes": [[["mixed6", 0, 0, {}]]]}, {"class_name": "Conv2D", "config": {"name": "conv2d_63", "trainable": false, "dtype": "float32", "filters": 192, "kernel_size": [7, 1], "strides": [1, 1], "padding": "same", "data_format": "channels_last", "dilation_rate": [1, 1], "groups": 1, "activation": "linear", "use_bias": false, "kernel_initializer": {"module": "keras.initializers", "class_name": "GlorotUniform", "config": {"seed": null}, "registered_name": null}, "bias_initializer": {"module": "keras.initializers", "class_name": "Zeros", "config": {}, "registered_name": null}, "kernel_regularizer": null, "bias_regularizer": null, "activity_regularizer": null, "kernel_constraint": null, "bias_constraint": null}, "name": "conv2d_63", "inbound_nodes": [[["activation_62", 0, 0, {}]]]}, {"class_name": "Conv2D", "config": {"name": "conv2d_68", "trainable": false, "dtype": "float32", "filters": 192, "kernel_size": [1, 7], "strides": [1, 1], "padding": "same", "data_format": "channels_last", "dilation_rate": [1, 1], "groups": 1, "activation": "linear", "use_bias": false, "kernel_initializer": {"module": "keras.initializers", "class_name": "GlorotUniform", "config": {"seed": null}, "registered_name": null}, "bias_initializer": {"module": "keras.initializers", "class_name": "Zeros", "config": {}, "registered_name": null}, "kernel_regularizer": null, "bias_regularizer": null, "activity_regularizer": null, "kernel_constraint": null, "bias_constraint": null}, "name": "conv2d_68", "inbound_nodes": [[["activation_67", 0, 0, {}]]]}, {"class_name": "Conv2D", "config": {"name": "conv2d_69", "trainable": false, "dtype": "float32", "filters": 192, "kernel_size": [1, 1], "strides": [1, 1], "padding": "same", "data_format": "channels_last", "dilation_rate": [1, 1], "groups": 1, "activation": "linear", "use_bias": false, "kernel_initializer": {"module": "keras.initializers", "class_name": "GlorotUniform", "config": {"seed": null}, "registered_name": null}, "bias_initializer": {"module": "keras.initializers", "class_name": "Zeros", "config": {}, "registered_name": null}, "kernel_regularizer": null, "bias_regularizer": null, "activity_regularizer": null, "kernel_constraint": null, "bias_constraint": null}, "name": "conv2d_69", "inbound_nodes": [[["average_pooling2d_6", 0, 0, {}]]]}, {"class_name": "BatchNormalization", "config": {"name": "batch_normalization_60", "trainable": false, "dtype": "float32", "axis": [3], "momentum": 0.99, "epsilon": 0.001, "center": true, "scale": false, "beta_initializer": {"module": "keras.initializers", "class_name": "Zeros", "config": {}, "registered_name": null}, "gamma_initializer": {"module": "keras.initializers", "class_name": "Ones", "config": {}, "registered_name": null}, "moving_mean_initializer": {"module": "keras.initializers", "class_name": "Zeros", "config": {}, "registered_name": null}, "moving_variance_initializer": {"module": "keras.initializers", "class_name": "Ones", "config": {}, "registered_name": null}, "beta_regularizer": null, "gamma_regularizer": null, "beta_constraint": null, "gamma_constraint": null}, "name": "batch_normalization_60", "inbound_nodes": [[["conv2d_60", 0, 0, {}]]]}, {"class_name": "BatchNormalization", "config": {"name": "batch_normalization_63", "trainable": false, "dtype": "float32", "axis": [3], "momentum": 0.99, "epsilon": 0.001, "center": true, "scale": false, "beta_initializer": {"module": "keras.initializers", "class_name": "Zeros", "config": {}, "registered_name": null}, "gamma_initializer": {"module": "keras.initializers", "class_name": "Ones", "config": {}, "registered_name": null}, "moving_mean_initializer": {"module": "keras.initializers", "class_name": "Zeros", "config": {}, "registered_name": null}, "moving_variance_initializer": {"module": "keras.initializers", "class_name": "Ones", "config": {}, "registered_name": null}, "beta_regularizer": null, "gamma_regularizer": null, "beta_constraint": null, "gamma_constraint": null}, "name": "batch_normalization_63", "inbound_nodes": [[["conv2d_63", 0, 0, {}]]]}, {"class_name": "BatchNormalization", "config": {"name": "batch_normalization_68", "trainable": false, "dtype": "float32", "axis": [3], "momentum": 0.99, "epsilon": 0.001, "center": true, "scale": false, "beta_initializer": {"module": "keras.initializers", "class_name": "Zeros", "config": {}, "registered_name": null}, "gamma_initializer": {"module": "keras.initializers", "class_name": "Ones", "config": {}, "registered_name": null}, "moving_mean_initializer": {"module": "keras.initializers", "class_name": "Zeros", "config": {}, "registered_name": null}, "moving_variance_initializer": {"module": "keras.initializers", "class_name": "Ones", "config": {}, "registered_name": null}, "beta_regularizer": null, "gamma_regularizer": null, "beta_constraint": null, "gamma_constraint": null}, "name": "batch_normalization_68", "inbound_nodes": [[["conv2d_68", 0, 0, {}]]]}, {"class_name": "BatchNormalization", "config": {"name": "batch_normalization_69", "trainable": false, "dtype": "float32", "axis": [3], "momentum": 0.99, "epsilon": 0.001, "center": true, "scale": false, "beta_initializer": {"module": "keras.initializers", "class_name": "Zeros", "config": {}, "registered_name": null}, "gamma_initializer": {"module": "keras.initializers", "class_name": "Ones", "config": {}, "registered_name": null}, "moving_mean_initializer": {"module": "keras.initializers", "class_name": "Zeros", "config": {}, "registered_name": null}, "moving_variance_initializer": {"module": "keras.initializers", "class_name": "Ones", "config": {}, "registered_name": null}, "beta_regularizer": null, "gamma_regularizer": null, "beta_constraint": null, "gamma_constraint": null}, "name": "batch_normalization_69", "inbound_nodes": [[["conv2d_69", 0, 0, {}]]]}, {"class_name": "Activation", "config": {"name": "activation_60", "trainable": false, "dtype": "float32", "activation": "relu"}, "name": "activation_60", "inbound_nodes": [[["batch_normalization_60", 0, 0, {}]]]}, {"class_name": "Activation", "config": {"name": "activation_63", "trainable": false, "dtype": "float32", "activation": "relu"}, "name": "activation_63", "inbound_nodes": [[["batch_normalization_63", 0, 0, {}]]]}, {"class_name": "Activation", "config": {"name": "activation_68", "trainable": false, "dtype": "float32", "activation": "relu"}, "name": "activation_68", "inbound_nodes": [[["batch_normalization_68", 0, 0, {}]]]}, {"class_name": "Activation", "config": {"name": "activation_69", "trainable": false, "dtype": "float32", "activation": "relu"}, "name": "activation_69", "inbound_nodes": [[["batch_normalization_69", 0, 0, {}]]]}, {"class_name": "Concatenate", "config": {"name": "mixed7", "trainable": false, "dtype": "float32", "axis": 3}, "name": "mixed7", "inbound_nodes": [[["activation_60", 0, 0, {}], ["activation_63", 0, 0, {}], ["activation_68", 0, 0, {}], ["activation_69", 0, 0, {}]]]}, {"class_name": "Conv2D", "config": {"name": "conv2d_72", "trainable": false, "dtype": "float32", "filters": 192, "kernel_size": [1, 1], "strides": [1, 1], "padding": "same", "data_format": "channels_last", "dilation_rate": [1, 1], "groups": 1, "activation": "linear", "use_bias": false, "kernel_initializer": {"module": "keras.initializers", "class_name": "GlorotUniform", "config": {"seed": null}, "registered_name": null}, "bias_initializer": {"module": "keras.initializers", "class_name": "Zeros", "config": {}, "registered_name": null}, "kernel_regularizer": null, "bias_regularizer": null, "activity_regularizer": null, "kernel_constraint": null, "bias_constraint": null}, "name": "conv2d_72", "inbound_nodes": [[["mixed7", 0, 0, {}]]]}, {"class_name": "BatchNormalization", "config": {"name": "batch_normalization_72", "trainable": false, "dtype": "float32", "axis": [3], "momentum": 0.99, "epsilon": 0.001, "center": true, "scale": false, "beta_initializer": {"module": "keras.initializers", "class_name": "Zeros", "config": {}, "registered_name": null}, "gamma_initializer": {"module": "keras.initializers", "class_name": "Ones", "config": {}, "registered_name": null}, "moving_mean_initializer": {"module": "keras.initializers", "class_name": "Zeros", "config": {}, "registered_name": null}, "moving_variance_initializer": {"module": "keras.initializers", "class_name": "Ones", "config": {}, "registered_name": null}, "beta_regularizer": null, "gamma_regularizer": null, "beta_constraint": null, "gamma_constraint": null}, "name": "batch_normalization_72", "inbound_nodes": [[["conv2d_72", 0, 0, {}]]]}, {"class_name": "Activation", "config": {"name": "activation_72", "trainable": false, "dtype": "float32", "activation": "relu"}, "name": "activation_72", "inbound_nodes": [[["batch_normalization_72", 0, 0, {}]]]}, {"class_name": "Conv2D", "config": {"name": "conv2d_73", "trainable": false, "dtype": "float32", "filters": 192, "kernel_size": [1, 7], "strides": [1, 1], "padding": "same", "data_format": "channels_last", "dilation_rate": [1, 1], "groups": 1, "activation": "linear", "use_bias": false, "kernel_initializer": {"module": "keras.initializers", "class_name": "GlorotUniform", "config": {"seed": null}, "registered_name": null}, "bias_initializer": {"module": "keras.initializers", "class_name": "Zeros", "config": {}, "registered_name": null}, "kernel_regularizer": null, "bias_regularizer": null, "activity_regularizer": null, "kernel_constraint": null, "bias_constraint": null}, "name": "conv2d_73", "inbound_nodes": [[["activation_72", 0, 0, {}]]]}, {"class_name": "BatchNormalization", "config": {"name": "batch_normalization_73", "trainable": false, "dtype": "float32", "axis": [3], "momentum": 0.99, "epsilon": 0.001, "center": true, "scale": false, "beta_initializer": {"module": "keras.initializers", "class_name": "Zeros", "config": {}, "registered_name": null}, "gamma_initializer": {"module": "keras.initializers", "class_name": "Ones", "config": {}, "registered_name": null}, "moving_mean_initializer": {"module": "keras.initializers", "class_name": "Zeros", "config": {}, "registered_name": null}, "moving_variance_initializer": {"module": "keras.initializers", "class_name": "Ones", "config": {}, "registered_name": null}, "beta_regularizer": null, "gamma_regularizer": null, "beta_constraint": null, "gamma_constraint": null}, "name": "batch_normalization_73", "inbound_nodes": [[["conv2d_73", 0, 0, {}]]]}, {"class_name": "Activation", "config": {"name": "activation_73", "trainable": false, "dtype": "float32", "activation": "relu"}, "name": "activation_73", "inbound_nodes": [[["batch_normalization_73", 0, 0, {}]]]}, {"class_name": "Conv2D", "config": {"name": "conv2d_70", "trainable": false, "dtype": "float32", "filters": 192, "kernel_size": [1, 1], "strides": [1, 1], "padding": "same", "data_format": "channels_last", "dilation_rate": [1, 1], "groups": 1, "activation": "linear", "use_bias": false, "kernel_initializer": {"module": "keras.initializers", "class_name": "GlorotUniform", "config": {"seed": null}, "registered_name": null}, "bias_initializer": {"module": "keras.initializers", "class_name": "Zeros", "config": {}, "registered_name": null}, "kernel_regularizer": null, "bias_regularizer": null, "activity_regularizer": null, "kernel_constraint": null, "bias_constraint": null}, "name": "conv2d_70", "inbound_nodes": [[["mixed7", 0, 0, {}]]]}, {"class_name": "Conv2D", "config": {"name": "conv2d_74", "trainable": false, "dtype": "float32", "filters": 192, "kernel_size": [7, 1], "strides": [1, 1], "padding": "same", "data_format": "channels_last", "dilation_rate": [1, 1], "groups": 1, "activation": "linear", "use_bias": false, "kernel_initializer": {"module": "keras.initializers", "class_name": "GlorotUniform", "config": {"seed": null}, "registered_name": null}, "bias_initializer": {"module": "keras.initializers", "class_name": "Zeros", "config": {}, "registered_name": null}, "kernel_regularizer": null, "bias_regularizer": null, "activity_regularizer": null, "kernel_constraint": null, "bias_constraint": null}, "name": "conv2d_74", "inbound_nodes": [[["activation_73", 0, 0, {}]]]}, {"class_name": "BatchNormalization", "config": {"name": "batch_normalization_70", "trainable": false, "dtype": "float32", "axis": [3], "momentum": 0.99, "epsilon": 0.001, "center": true, "scale": false, "beta_initializer": {"module": "keras.initializers", "class_name": "Zeros", "config": {}, "registered_name": null}, "gamma_initializer": {"module": "keras.initializers", "class_name": "Ones", "config": {}, "registered_name": null}, "moving_mean_initializer": {"module": "keras.initializers", "class_name": "Zeros", "config": {}, "registered_name": null}, "moving_variance_initializer": {"module": "keras.initializers", "class_name": "Ones", "config": {}, "registered_name": null}, "beta_regularizer": null, "gamma_regularizer": null, "beta_constraint": null, "gamma_constraint": null}, "name": "batch_normalization_70", "inbound_nodes": [[["conv2d_70", 0, 0, {}]]]}, {"class_name": "BatchNormalization", "config": {"name": "batch_normalization_74", "trainable": false, "dtype": "float32", "axis": [3], "momentum": 0.99, "epsilon": 0.001, "center": true, "scale": false, "beta_initializer": {"module": "keras.initializers", "class_name": "Zeros", "config": {}, "registered_name": null}, "gamma_initializer": {"module": "keras.initializers", "class_name": "Ones", "config": {}, "registered_name": null}, "moving_mean_initializer": {"module": "keras.initializers", "class_name": "Zeros", "config": {}, "registered_name": null}, "moving_variance_initializer": {"module": "keras.initializers", "class_name": "Ones", "config": {}, "registered_name": null}, "beta_regularizer": null, "gamma_regularizer": null, "beta_constraint": null, "gamma_constraint": null}, "name": "batch_normalization_74", "inbound_nodes": [[["conv2d_74", 0, 0, {}]]]}, {"class_name": "Activation", "config": {"name": "activation_70", "trainable": false, "dtype": "float32", "activation": "relu"}, "name": "activation_70", "inbound_nodes": [[["batch_normalization_70", 0, 0, {}]]]}, {"class_name": "Activation", "config": {"name": "activation_74", "trainable": false, "dtype": "float32", "activation": "relu"}, "name": "activation_74", "inbound_nodes": [[["batch_normalization_74", 0, 0, {}]]]}, {"class_name": "Conv2D", "config": {"name": "conv2d_71", "trainable": false, "dtype": "float32", "filters": 320, "kernel_size": [3, 3], "strides": [2, 2], "padding": "valid", "data_format": "channels_last", "dilation_rate": [1, 1], "groups": 1, "activation": "linear", "use_bias": false, "kernel_initializer": {"module": "keras.initializers", "class_name": "GlorotUniform", "config": {"seed": null}, "registered_name": null}, "bias_initializer": {"module": "keras.initializers", "class_name": "Zeros", "config": {}, "registered_name": null}, "kernel_regularizer": null, "bias_regularizer": null, "activity_regularizer": null, "kernel_constraint": null, "bias_constraint": null}, "name": "conv2d_71", "inbound_nodes": [[["activation_70", 0, 0, {}]]]}, {"class_name": "Conv2D", "config": {"name": "conv2d_75", "trainable": false, "dtype": "float32", "filters": 192, "kernel_size": [3, 3], "strides": [2, 2], "padding": "valid", "data_format": "channels_last", "dilation_rate": [1, 1], "groups": 1, "activation": "linear", "use_bias": false, "kernel_initializer": {"module": "keras.initializers", "class_name": "GlorotUniform", "config": {"seed": null}, "registered_name": null}, "bias_initializer": {"module": "keras.initializers", "class_name": "Zeros", "config": {}, "registered_name": null}, "kernel_regularizer": null, "bias_regularizer": null, "activity_regularizer": null, "kernel_constraint": null, "bias_constraint": null}, "name": "conv2d_75", "inbound_nodes": [[["activation_74", 0, 0, {}]]]}, {"class_name": "BatchNormalization", "config": {"name": "batch_normalization_71", "trainable": false, "dtype": "float32", "axis": [3], "momentum": 0.99, "epsilon": 0.001, "center": true, "scale": false, "beta_initializer": {"module": "keras.initializers", "class_name": "Zeros", "config": {}, "registered_name": null}, "gamma_initializer": {"module": "keras.initializers", "class_name": "Ones", "config": {}, "registered_name": null}, "moving_mean_initializer": {"module": "keras.initializers", "class_name": "Zeros", "config": {}, "registered_name": null}, "moving_variance_initializer": {"module": "keras.initializers", "class_name": "Ones", "config": {}, "registered_name": null}, "beta_regularizer": null, "gamma_regularizer": null, "beta_constraint": null, "gamma_constraint": null}, "name": "batch_normalization_71", "inbound_nodes": [[["conv2d_71", 0, 0, {}]]]}, {"class_name": "BatchNormalization", "config": {"name": "batch_normalization_75", "trainable": false, "dtype": "float32", "axis": [3], "momentum": 0.99, "epsilon": 0.001, "center": true, "scale": false, "beta_initializer": {"module": "keras.initializers", "class_name": "Zeros", "config": {}, "registered_name": null}, "gamma_initializer": {"module": "keras.initializers", "class_name": "Ones", "config": {}, "registered_name": null}, "moving_mean_initializer": {"module": "keras.initializers", "class_name": "Zeros", "config": {}, "registered_name": null}, "moving_variance_initializer": {"module": "keras.initializers", "class_name": "Ones", "config": {}, "registered_name": null}, "beta_regularizer": null, "gamma_regularizer": null, "beta_constraint": null, "gamma_constraint": null}, "name": "batch_normalization_75", "inbound_nodes": [[["conv2d_75", 0, 0, {}]]]}, {"class_name": "Activation", "config": {"name": "activation_71", "trainable": false, "dtype": "float32", "activation": "relu"}, "name": "activation_71", "inbound_nodes": [[["batch_normalization_71", 0, 0, {}]]]}, {"class_name": "Activation", "config": {"name": "activation_75", "trainable": false, "dtype": "float32", "activation": "relu"}, "name": "activation_75", "inbound_nodes": [[["batch_normalization_75", 0, 0, {}]]]}, {"class_name": "MaxPooling2D", "config": {"name": "max_pooling2d_3", "trainable": false, "dtype": "float32", "pool_size": [3, 3], "padding": "valid", "strides": [2, 2], "data_format": "channels_last"}, "name": "max_pooling2d_3", "inbound_nodes": [[["mixed7", 0, 0, {}]]]}, {"class_name": "Concatenate", "config": {"name": "mixed8", "trainable": false, "dtype": "float32", "axis": 3}, "name": "mixed8", "inbound_nodes": [[["activation_71", 0, 0, {}], ["activation_75", 0, 0, {}], ["max_pooling2d_3", 0, 0, {}]]]}, {"class_name": "Conv2D", "config": {"name": "conv2d_80", "trainable": false, "dtype": "float32", "filters": 448, "kernel_size": [1, 1], "strides": [1, 1], "padding": "same", "data_format": "channels_last", "dilation_rate": [1, 1], "groups": 1, "activation": "linear", "use_bias": false, "kernel_initializer": {"module": "keras.initializers", "class_name": "GlorotUniform", "config": {"seed": null}, "registered_name": null}, "bias_initializer": {"module": "keras.initializers", "class_name": "Zeros", "config": {}, "registered_name": null}, "kernel_regularizer": null, "bias_regularizer": null, "activity_regularizer": null, "kernel_constraint": null, "bias_constraint": null}, "name": "conv2d_80", "inbound_nodes": [[["mixed8", 0, 0, {}]]]}, {"class_name": "BatchNormalization", "config": {"name": "batch_normalization_80", "trainable": false, "dtype": "float32", "axis": [3], "momentum": 0.99, "epsilon": 0.001, "center": true, "scale": false, "beta_initializer": {"module": "keras.initializers", "class_name": "Zeros", "config": {}, "registered_name": null}, "gamma_initializer": {"module": "keras.initializers", "class_name": "Ones", "config": {}, "registered_name": null}, "moving_mean_initializer": {"module": "keras.initializers", "class_name": "Zeros", "config": {}, "registered_name": null}, "moving_variance_initializer": {"module": "keras.initializers", "class_name": "Ones", "config": {}, "registered_name": null}, "beta_regularizer": null, "gamma_regularizer": null, "beta_constraint": null, "gamma_constraint": null}, "name": "batch_normalization_80", "inbound_nodes": [[["conv2d_80", 0, 0, {}]]]}, {"class_name": "Activation", "config": {"name": "activation_80", "trainable": false, "dtype": "float32", "activation": "relu"}, "name": "activation_80", "inbound_nodes": [[["batch_normalization_80", 0, 0, {}]]]}, {"class_name": "Conv2D", "config": {"name": "conv2d_77", "trainable": false, "dtype": "float32", "filters": 384, "kernel_size": [1, 1], "strides": [1, 1], "padding": "same", "data_format": "channels_last", "dilation_rate": [1, 1], "groups": 1, "activation": "linear", "use_bias": false, "kernel_initializer": {"module": "keras.initializers", "class_name": "GlorotUniform", "config": {"seed": null}, "registered_name": null}, "bias_initializer": {"module": "keras.initializers", "class_name": "Zeros", "config": {}, "registered_name": null}, "kernel_regularizer": null, "bias_regularizer": null, "activity_regularizer": null, "kernel_constraint": null, "bias_constraint": null}, "name": "conv2d_77", "inbound_nodes": [[["mixed8", 0, 0, {}]]]}, {"class_name": "Conv2D", "config": {"name": "conv2d_81", "trainable": false, "dtype": "float32", "filters": 384, "kernel_size": [3, 3], "strides": [1, 1], "padding": "same", "data_format": "channels_last", "dilation_rate": [1, 1], "groups": 1, "activation": "linear", "use_bias": false, "kernel_initializer": {"module": "keras.initializers", "class_name": "GlorotUniform", "config": {"seed": null}, "registered_name": null}, "bias_initializer": {"module": "keras.initializers", "class_name": "Zeros", "config": {}, "registered_name": null}, "kernel_regularizer": null, "bias_regularizer": null, "activity_regularizer": null, "kernel_constraint": null, "bias_constraint": null}, "name": "conv2d_81", "inbound_nodes": [[["activation_80", 0, 0, {}]]]}, {"class_name": "BatchNormalization", "config": {"name": "batch_normalization_77", "trainable": false, "dtype": "float32", "axis": [3], "momentum": 0.99, "epsilon": 0.001, "center": true, "scale": false, "beta_initializer": {"module": "keras.initializers", "class_name": "Zeros", "config": {}, "registered_name": null}, "gamma_initializer": {"module": "keras.initializers", "class_name": "Ones", "config": {}, "registered_name": null}, "moving_mean_initializer": {"module": "keras.initializers", "class_name": "Zeros", "config": {}, "registered_name": null}, "moving_variance_initializer": {"module": "keras.initializers", "class_name": "Ones", "config": {}, "registered_name": null}, "beta_regularizer": null, "gamma_regularizer": null, "beta_constraint": null, "gamma_constraint": null}, "name": "batch_normalization_77", "inbound_nodes": [[["conv2d_77", 0, 0, {}]]]}, {"class_name": "BatchNormalization", "config": {"name": "batch_normalization_81", "trainable": false, "dtype": "float32", "axis": [3], "momentum": 0.99, "epsilon": 0.001, "center": true, "scale": false, "beta_initializer": {"module": "keras.initializers", "class_name": "Zeros", "config": {}, "registered_name": null}, "gamma_initializer": {"module": "keras.initializers", "class_name": "Ones", "config": {}, "registered_name": null}, "moving_mean_initializer": {"module": "keras.initializers", "class_name": "Zeros", "config": {}, "registered_name": null}, "moving_variance_initializer": {"module": "keras.initializers", "class_name": "Ones", "config": {}, "registered_name": null}, "beta_regularizer": null, "gamma_regularizer": null, "beta_constraint": null, "gamma_constraint": null}, "name": "batch_normalization_81",…
ization_51/beta", "shape": [160], "dtype": "float32", "quantization": {"dtype": "uint8", "min": -1.5111703402855816, "scale": 0.007789537836523617, "original_dtype": "float32"}}, {"name": "batch_normalization_51/moving_mean", "shape": [160], "dtype": "float32", "quantization": {"dtype": "uint8", "min": -1.1756509110039355, "scale": 0.008107937317268521, "original_dtype": "float32"}}, {"name": "batch_normalization_51/moving_variance", "shape": [160], "dtype": "float32", "quantization": {"dtype": "uint8", "min": 0.12228281050920486, "scale": 0.003710310336421518, "original_dtype": "float32"}}, {"name": "batch_normalization_52/beta", "shape": [160], "dtype": "float32", "quantization": {"dtype": "uint8", "min": -1.3942745040444766, "scale": 0.008106247116537655, "original_dtype": "float32"}}, {"name": "batch_normalization_52/moving_mean", "shape": [160], "dtype": "float32", "quantization": {"dtype": "uint8", "min": -0.8003060158561258, "scale": 0.005635957858141731, "original_dtype": "float32"}}, {"name": "batch_normalization_52/moving_variance", "shape": [160], "dtype": "float32", "quantization": {"dtype": "uint8", "min": 0.10333218425512314, "scale": 0.003136048042306713, "original_dtype": "float32"}}, {"name": "batch_normalization_53/beta", "shape": [192], "dtype": "float32", "quantization": {"dtype": "uint8", "min": -1.3770227432250977, "scale": 0.005268974397696701, "original_dtype": "float32"}}, {"name": "batch_normalization_53/moving_mean", "shape": [192], "dtype": "float32", "quantization": {"dtype": "uint8", "min": -0.8861777693617577, "scale": 0.006613266935535505, "original_dtype": "float32"}}, {"name": "batch_normalization_53/moving_variance", "shape": [192], "dtype": "float32", "quantization": {"dtype": "uint8", "min": 0.09969180822372437, "scale": 0.0021103650915856456, "original_dtype": "float32"}}, {"name": "batch_normalization_54/beta", "shape": [160], "dtype": "float32", "quantization": {"dtype": "uint8", "min": -1.5752327203750611, "scale": 0.007721729021446378, "original_dtype": "float32"}}, {"name": "batch_normalization_54/moving_mean", "shape": [160], "dtype": "float32", "quantization": {"dtype": "uint8", "min": -1.0455786906036677, "scale": 0.0078028260492811015, "original_dtype": "float32"}}, {"name": "batch_normalization_54/moving_variance", "shape": [160], "dtype": "float32", "quantization": {"dtype": "uint8", "min": 0.14195948839187622, "scale": 0.0032920276417451747, "original_dtype": "float32"}}, {"name": "batch_normalization_55/beta", "shape": [160], "dtype": "float32", "quantization": {"dtype": "uint8", "min": -1.4196956737368713, "scale": 0.007843622506833544, "original_dtype": "float32"}}, {"name": "batch_normalization_55/moving_mean", "shape": [160], "dtype": "float32", "quantization": {"dtype": "uint8", "min": -0.9844950493644266, "scale": 0.006077129934348312, "original_dtype": "float32"}}, {"name": "batch_normalization_55/moving_variance", "shape": [160], "dtype": "float32", "quantization": {"dtype": "uint8", "min": 0.09572248160839081, "scale": 0.003362670657681484, "original_dtype": "float32"}}, {"name": "batch_normalization_56/beta", "shape": [160], "dtype": "float32", "quantization": {"dtype": "uint8", "min": -2.046867796661807, "scale": 0.00878484032902063, "original_dtype": "float32"}}, {"name": "batch_normalization_56/moving_mean", "shape": [160], "dtype": "float32", "quantization": {"dtype": "uint8", "min": -1.6713993633494657, "scale": 0.00994880573422301, "original_dtype": "float32"}}, {"name": "batch_normalization_56/moving_variance", "shape": [160], "dtype": "float32", "quantization": {"dtype": "uint8", "min": 0.15238922834396362, "scale": 0.004941644154342951, "original_dtype": "float32"}}, {"name": "batch_normalization_57/beta", "shape": [160], "dtype": "float32", "quantization": {"dtype": "uint8", "min": -1.1680210122875139, "scale": 0.007892033866807526, "original_dtype": "float32"}}, {"name": "batch_normalization_57/moving_mean", "shape": [160], "dtype": "float32", "quantization": {"dtype": "uint8", "min": -1.0735932181863224, "scale": 0.007109888862161075, "original_dtype": "float32"}}, {"name": "batch_normalization_57/moving_variance", "shape": [160], "dtype": "float32", "quantization": {"dtype": "uint8", "min": 0.12568984925746918, "scale": 0.006417268923684663, "original_dtype": "float32"}}, {"name": "batch_normalization_58/beta", "shape": [192], "dtype": "float32", "quantization": {"dtype": "uint8", "min": -1.5697886635275449, "scale": 0.008919253770042868, "original_dtype": "float32"}}, {"name": "batch_normalization_58/moving_mean", "shape": [192], "dtype": "float32", "quantization": {"dtype": "uint8", "min": -2.389268244014067, "scale": 0.013273712466744816, "original_dtype": "float32"}}, {"name": "batch_normalization_58/moving_variance", "shape": [192], "dtype": "float32", "quantization": {"dtype": "uint8", "min": 0.15992799401283264, "scale": 0.006611632248934578, "original_dtype": "float32"}}, {"name": "batch_normalization_59/beta", "shape": [192], "dtype": "float32", "quantization": {"dtype": "uint8", "min": -1.5077630281448364, "scale": 0.004633919397989909, "original_dtype": "float32"}}, {"name": "batch_normalization_59/moving_mean", "shape": [192], "dtype": "float32", "quantization": {"dtype": "uint8", "min": -0.6860423237669702, "scale": 0.003298280402725818, "original_dtype": "float32"}}, {"name": "batch_normalization_59/moving_variance", "shape": [192], "dtype": "float32", "quantization": {"dtype": "uint8", "min": 0.04384522885084152, "scale": 0.0017322076594128329, "original_dtype": "float32"}}, {"name": "batch_normalization_6/beta", "shape": [48], "dtype": "float32", "quantization": {"dtype": "uint8", "min": -0.6224861390450421, "scale": 0.009576709831462187, "original_dtype": "float32"}}, {"name": "batch_normalization_6/moving_mean", "shape": [48], "dtype": "float32", "quantization": {"dtype": "uint8", "min": -1.9350080377915326, "scale": 0.01791674109066234, "original_dtype": "float32"}}, {"name": "batch_normalization_6/moving_variance", "shape": [48], "dtype": "float32", "quantization": {"dtype": "uint8", "min": 0.30517062544822693, "scale": 0.012810369215759577, "original_dtype": "float32"}}, {"name": "batch_normalization_60/beta", "shape": [192], "dtype": "float32", "quantization": {"dtype": "uint8", "min": -1.6014784339596244, "scale": 0.006843924931451386, "original_dtype": "float32"}}, {"name": "batch_normalization_60/moving_mean", "shape": [192], "dtype": "float32", "quantization": {"dtype": "uint8", "min": -1.017093539237976, "scale": 0.00396867946849442, "original_dtype": "float32"}}, {"name": "batch_normalization_60/moving_variance", "shape": [192], "dtype": "float32", "quantization": {"dtype": "uint8", "min": 0.1556394249200821, "scale": 0.004416941603024801, "original_dtype": "float32"}}, {"name": "batch_normalization_61/beta", "shape": [192], "dtype": "float32", "quantization": {"dtype": "uint8", "min": -1.7878434658050537, "scale": 0.0060091163597854914, "original_dtype": "float32"}}, {"name": "batch_normalization_61/moving_mean", "shape": [192], "dtype": "float32", "quantization": {"dtype": "uint8", "min": -0.848761195528741, "scale": 0.0046892883730869665, "original_dtype": "float32"}}, {"name": "batch_normalization_61/moving_variance", "shape": [192], "dtype": "float32", "quantization": {"dtype": "uint8", "min": 0.1556987166404724, "scale": 0.0031283207968169566, "original_dtype": "float32"}}, {"name": "batch_normalization_62/beta", "shape": [192], "dtype": "float32", "quantization": {"dtype": "uint8", "min": -1.1786462372424555, "scale": 0.007366538982765347, "original_dtype": "float32"}}, {"name": "batch_normalization_62/moving_mean", "shape": [192], "dtype": "float32", "quantization": {"dtype": "uint8", "min": -0.3442901513155769, "scale": 0.0029680185458239388, "original_dtype": "float32"}}, {"name": "batch_normalization_62/moving_variance", "shape": [192], "dtype": "float32", "quantization": {"dtype": "uint8", "min": 0.06627953052520752, "scale": 0.0022805155492296404, "original_dtype": "float32"}}, {"name": "batch_normalization_63/beta", "shape": [192], "dtype": "float32", "quantization": {"dtype": "uint8", "min": -2.0566626904057523, "scale": 0.018363059735765644, "original_dtype": "float32"}}, {"name": "batch_normalization_63/moving_mean", "shape": [192], "dtype": "float32", "quantization": {"dtype": "uint8", "min": -2.1665351285653953, "scale": 0.00975916724579007, "original_dtype": "float32"}}, {"name": "batch_normalization_63/moving_variance", "shape": [192], "dtype": "float32", "quantization": {"dtype": "uint8", "min": 0.18924513459205627, "scale": 0.026201873082740634, "original_dtype": "float32"}}, {"name": "batch_normalization_64/beta", "shape": [192], "dtype": "float32", "quantization": {"dtype": "uint8", "min": -1.5478900008341845, "scale": 0.007625073895734899, "original_dtype": "float32"}}, {"name": "batch_normalization_64/moving_mean", "shape": [192], "dtype": "float32", "quantization": {"dtype": "uint8", "min": -0.7345633170183967, "scale": 0.006801512194614784, "original_dtype": "float32"}}, {"name": "batch_normalization_64/moving_variance", "shape": [192], "dtype": "float32", "quantization": {"dtype": "uint8", "min": 0.1404614895582199, "scale": 0.0032597081918342443, "original_dtype": "float32"}}, {"name": "batch_normalization_65/beta", "shape": [192], "dtype": "float32", "quantization": {"dtype": "uint8", "min": -1.5416762431462605, "scale": 0.009068683783213297, "original_dtype": "float32"}}, {"name": "batch_normalization_65/moving_mean", "shape": [192], "dtype": "float32", "quantization": {"dtype": "uint8", "min": -0.8045707742373148, "scale": 0.004732769260219499, "original_dtype": "float32"}}, {"name": "batch_normalization_65/moving_variance", "shape": [192], "dtype": "float32", "quantization": {"dtype": "uint8", "min": 0.13462397456169128, "scale": 0.0038408855597178142, "original_dtype": "float32"}}, {"name": "batch_normalization_66/beta", "shape": [192], "dtype": "float32", "quantization": {"dtype": "uint8", "min": -1.4985288381576538, "scale": 0.00559907386115953, "original_dtype": "float32"}}, {"name": "batch_normalization_66/moving_mean", "shape": [192], "dtype": "float32", "quantization": {"dtype": "uint8", "min": -0.9288614679785335, "scale": 0.004280467594371122, "original_dtype": "float32"}}, {"name": "batch_normalization_66/moving_variance", "shape": [192], "dtype": "float32", "quantization": {"dtype": "uint8", "min": 0.09792490303516388, "scale": 0.002519092548127268, "original_dtype": "float32"}}, {"name": "batch_normalization_67/beta", "shape": [192], "dtype": "float32", "quantization": {"dtype": "uint8", "min": -1.103868895885991, "scale": 0.005809836294136795, "original_dtype": "float32"}}, {"name": "batch_normalization_67/moving_mean", "shape": [192], "dtype": "float32", "quantization": {"dtype": "uint8", "min": -0.6088888899952758, "scale": 0.005911542621313357, "original_dtype": "float32"}}, {"name": "batch_normalization_67/moving_variance", "shape": [192], "dtype": "float32", "quantization": {"dtype": "uint8", "min": 0.10932212322950363, "scale": 0.0018616767782790988, "original_dtype": "float32"}}, {"name": "batch_normalization_68/beta", "shape": [192], "dtype": "float32", "quantization": {"dtype": "uint8", "min": -2.156545956929525, "scale": 0.012685564452526617, "original_dtype": "float32"}}, {"name": "batch_normalization_68/moving_mean", "shape": [192], "dtype": "float32", "quantization": {"dtype": "uint8", "min": -1.5285968780517578, "scale": 0.004015073355506448, "original_dtype": "float32"}}, {"name": "batch_normalization_68/moving_variance", "shape": [192], "dtype": "float32", "quantization": {"dtype": "uint8", "min": 0.17439371347427368, "scale": 0.0143133516405143, "original_dtype": "float32"}}, {"name": "batch_normalization_69/beta", "shape": [192], "dtype": "float32", "quantization": {"dtype": "uint8", "min": -1.8866621255874634, "scale": 0.00447546828026865, "original_dtype": "float32"}}, {"name": "batch_normalization_69/moving_mean", "shape": [192], "dtype": "float32", "quantization": {"dtype": "uint8", "min": -0.7255152463912964, "scale": 0.002412210288001042, "original_dtype": "float32"}}, {"name": "batch_normalization_69/moving_variance", "shape": [192], "dtype": "float32", "quantization": {"dtype": "uint8", "min": 0.08144648373126984, "scale": 0.0008574839316162409, "original_dtype": "float32"}}, {"name": "batch_normalization_7/beta", "shape": [64], "dtype": "float32", "quantization": {"dtype": "uint8", "min": -1.216228295775021, "scale": 0.021337338522368788, "original_dtype": "float32"}}, {"name": "batch_normalization_7/moving_mean", "shape": [64], "dtype": "float32", "quantization": {"dtype": "uint8", "min": -7.0404658598058365, "scale": 0.03520232929902918, "original_dtype": "float32"}}, {"name": "batch_normalization_7/moving_variance", "shape": [64], "dtype": "float32", "quantization": {"dtype": "uint8", "min": 0.8462582230567932, "scale": 0.03081264846465167, "original_dtype": "float32"}}, {"name": "batch_normalization_70/beta", "shape": [192], "dtype": "float32", "quantization": {"dtype": "uint8", "min": -1.6068100929260254, "scale": 0.0056825328691332945, "original_dtype": "float32"}}, {"name": "batch_normalization_70/moving_mean", "shape": [192], "dtype": "float32", "quantization": {"dtype": "uint8", "min": -0.4153748950537513, "scale": 0.004282215412925271, "original_dtype": "float32"}}, {"name": "batch_normalization_70/moving_variance", "shape": [192], "dtype": "float32", "quantization": {"dtype": "uint8", "min": 0.022567227482795715, "scale": 0.00038638576573016596, "original_dtype": "float32"}}, {"name": "batch_normalization_71/beta", "shape": [320], "dtype": "float32", "quantization": {"dtype": "uint8", "min": -1.5332875705232807, "scale": 0.009236672111586028, "original_dtype": "float32"}}, {"name": "batch_normalization_71/moving_mean", "shape": [320], "dtype": "float32", "quantization": {"dtype": "uint8", "min": -1.4257881026641996, "scale": 0.007023586712631525, "original_dtype": "float32"}}, {"name": "batch_normalization_71/moving_variance", "shape": [320], "dtype": "float32", "quantization": {"dtype": "uint8", "min": 0.032665323466062546, "scale": 0.001041521935486326, "original_dtype": "float32"}}, {"name": "batch_normalization_72/beta", "shape": [192], "dtype": "float32", "quantization": {"dtype": "uint8", "min": -0.9840592664830825, "scale": 0.0126161444420908, "original_dtype": "float32"}}, {"name": "batch_normalization_72/moving_mean", "shape": [192], "dtype": "float32", "quantization": {"dtype": "uint8", "min": -0.7224687501495959, "scale": 0.009030859376869949, "original_dtype": "float32"}}, {"name": "batch_normalization_72/moving_variance", "shape": [192], "dtype": "float32", "quantization": {"dtype": "uint8", "min": 0.01735897734761238, "scale": 0.0019835604610396367, "original_dtype": "float32"}}, {"name": "batch_normalization_73/beta", "shape": [192], "dtype": "float32", "quantization": {"dtype": "uint8", "min": -1.0794205230825087, "scale": 0.015643775696847953, "original_dtype": "float32"}}, {"name": "batch_normalization_73/moving_mean", "shape": [192], "dtype": "float32", "quantization": {"dtype": "uint8", "min": -1.14853193619672, "scale": 0.008322695189831303, "original_dtype": "float32"}}, {"name": "batch_normalization_73/moving_variance", "shape": [192], "dtype": "float32", "quantization": {"dtype": "uint8", "min": 0.06889958679676056, "scale": 0.0049421457098979575, "original_dtype": "float32"}}, {"name": "batch_normalization_74/beta", "shape": [192], "dtype": "float32", "quantization": {"dtype": "uint8", "min": -1.4386041463590136, "scale": 0.007652149714675604, "original_dtype": "float32"}}, {"name": "batch_normalization_74/moving_mean", "shape": [192], "dtype": "float32", "quantization": {"dtype": "uint8", "min": -2.0867875417073565, "scale": 0.015344026041965858, "original_dtype": "float32"}}, {"name": "batch_normalization_74/moving_variance", "shape": [192], "dtype": "float32", "quantization": {"dtype": "uint8", "min": 0.0966603085398674, "scale": 0.00794696553665049, "original_dtype": "float32"}}, {"name": "batch_normalization_75/beta", "shape": [192], "dtype": "float32", "quantization": {"dtype": "uint8", "min": -1.6161551966386682, "scale": 0.012151542831869686, "original_dtype": "float32"}}, {"name": "batch_normalization_75/moving_mean", "shape": [192], "dtype": "float32", "quantization": {"dtype": "uint8", "min": -0.9907827875193427, "scale": 0.005932831062990076, "original_dtype": "float32"}}, {"name": "batch_normalization_75/moving_variance", "shape": [192], "dtype": "float32", "quantization": {"dtype": "uint8", "min": 0.04993617907166481, "scale": 0.0037349135121878454, "original_dtype": "float32"}}, {"name": "batch_normalization_76/beta", "shape": [320], "dtype": "float32", "quantization": {"dtype": "uint8", "min": -1.6181999392369215, "scale": 0.008298461226856008, "original_dtype": "float32"}}, {"name": "batch_normalization_76/moving_mean", "shape": [320], "dtype": "float32", "quantization": {"dtype": "uint8", "min": -1.676225385011411, "scale": 0.01067659480898988, "original_dtype": "float32"}}, {"name": "batch_normalization_76/moving_variance", "shape": [320], "dtype": "float32", "quantization": {"dtype": "uint8", "min": 0.06401757895946503, "scale": 0.01147456525587568, "original_dtype": "float32"}}, {"name": "batch_normalization_77/beta", "shape": [384], "dtype": "float32", "quantization": {"dtype": "uint8", "min": -1.4050858764087453, "scale": 0.008075206186257157, "original_dtype": "float32"}}, {"name": "batch_normalization_77/moving_mean", "shape": [384], "dtype": "float32", "quantization": {"dtype": "uint8", "min": -0.5695081598618451, "scale": 0.004745901332182043, "original_dtype": "float32"}}, {"name": "batch_normalization_77/moving_variance", "shape": [384], "dtype": "float32", "quantization": {"dtype": "uint8", "min": 0.07840418815612793, "scale": 0.005158745541292078, "original_dtype": "float32"}}, {"name": "batch_normalization_78/beta", "shape": [384], "dtype": "float32", "quantization": {"dtype": "uint8", "min": -2.0476858615875244, "scale": 0.004186448162677241, "original_dtype": "float32"}}, {"name": "batch_normalization_78/moving_mean", "shape": [384], "dtype": "float32", "quantization": {"dtype": "uint8", "min": -0.4284111261367798, "scale": 0.0011561296734155394, "original_dtype": "float32"}}, {"name": "batch_normalization_78/moving_variance", "shape": [384], "dtype": "float32", "quantization": {"dtype": "uint8", "min": 0.040495067834854126, "scale": 0.00027409271866667503, "original_dtype": "float32"}}, {"name": "batch_normalization_79/beta", "shape": [384], "dtype": "float32", "quantization": {"dtype": "uint8", "min": -1.713683009147644, "scale": 0.0031841796987196976, "original_dtype": "float32"}}, {"name": "batch_normalization_79/moving_mean", "shape": [384], "dtype": "float32", "quantization": {"dtype": "uint8", "min": -0.40902480483055115, "scale": 0.0010645009723364138, "original_dtype": "float32"}}, {"name": "batch_normalization_79/moving_variance", "shape": [384], "dtype": "float32", "quantization": {"dtype": "uint8", "min": 0.040791403502225876, "scale": 0.0002558104693889618, "original_dtype": "float32"}}, {"name": "batch_normalization_8/beta", "shape": [64], "dtype": "float32", "quantization": {"dtype": "uint8", "min": -1.255580722584444, "scale": 0.017438621147006166, "original_dtype": "float32"}}, {"name": "batch_normalization_8/moving_mean", "shape": [64], "dtype": "float32", "quantization": {"dtype": "uint8", "min": -8.36381581624349, "scale": 0.04862683614095052, "original_dtype": "float32"}}, {"name": "batch_normalization_8/moving_variance", "shape": [64], "dtype": "float32", "quantization": {"dtype": "uint8", "min": 0.2607436180114746, "scale": 0.022331778208414713, "original_dtype": "float32"}}, {"name": "batch_normalization_80/beta", "shape": [448], "dtype": "float32", "quantization": {"dtype": "uint8", "min": -1.873672760935391, "scale": 0.008755480191286873, "original_dtype": "float32"}}, {"name": "batch_normalization_80/moving_mean", "shape": [448], "dtype": "float32", "quantization": {"dtype": "uint8", "min": -1.1089283068974813, "scale": 0.0072008331616719564, "original_dtype": "float32"}}, {"name": "batch_normalization_80/moving_variance", "shape": [448], "dtype": "float32", "quantization": {"dtype": "uint8", "min": 0.09635291248559952, "scale": 0.0067001605442926, "original_dtype": "float32"}}, {"name": "batch_normalization_81/beta", "shape": [384], "dtype": "float32", "quantization": {"dtype": "uint8", "min": -1.3320299438401764, "scale": 0.008649545089871275, "original_dtype": "float32"}}, {"name": "batch_normalization_81/moving_mean", "shape": [384], "dtype": "float32", "quantization": {"dtype": "uint8", "min": -0.8238879919052123, "scale": 0.00807733325397267, "original_dtype": "float32"}}, {"name": "batch_normalization_81/moving_variance", "shape": [384], "dtype": "float32", "quantization": {"dtype": "uint8", "min": 0.11221705377101898, "scale": 0.007556027583047456, "original_dtype": "float32"}}, {"name": "batch_normalization_82/beta", "shape": [384], "dtype": "float32", "quantization": {"dtype": "uint8", "min": -1.8041856429156136, "scale": 0.01542039011038986, "original_dtype": "float32"}}, {"name": "batch_normalization_82/moving_mean", "shape": [384], "dtype": "float32", "quantization": {"dtype": "uint8", "min": -1.1960447704090793, "scale": 0.010491620793062099, "original_dtype": "float32"}}, {"name": "batch_normalization_82/moving_variance", "shape": [384], "dtype": "float32", "quantization": {"dtype": "uint8", "min": 0.06686438620090485, "scale": 0.016740696512016595, "original_dtype": "float32"}}, {"name": "batch_normalization_83/beta", "shape": [384], "dtype": "float32", "quantization": {"dtype": "uint8", "min": -1.7820790484839795, "scale": 0.00817467453433018, "original_dtype": "float32"}}, {"name": "batch_normalization_83/moving_mean", "shape": [384], "dtype": "float32", "quantization": {"dtype": "uint8", "min": -1.2739042254055248, "scale": 0.012132421194338331, "original_dtype": "float32"}}, {"name": "batch_normalization_83/moving_variance", "shape": [384], "dtype": "float32", "quantization": {"dtype": "uint8", "min": 0.06667815893888474, "scale": 0.005794403161488327, "original_dtype": "float32"}}, {"name": "batch_normalization_84/beta", "shape": [192], "dtype": "float32", "quantization": {"dtype": "uint8", "min": -1.1886987686157227, "scale": 0.0030162059793285294, "original_dtype": "float32"}}, {"name": "batch_normalization_84/moving_mean", "shape": [192], "dtype": "float32", "quantization": {"dtype": "uint8", "min": -0.9175041979434444, "scale": 0.003954759473894157, "original_dtype": "float32"}}, {"name": "batch_normalization_84/moving_variance", "shape": [192], "dtype": "float32", "quantization": {"dtype": "uint8", "min": 0.0620877705514431, "scale": 0.0015415258413436367, "original_dtype": "float32"}}, {"name": "batch_normalization_85/beta", "shape": [320], "dtype": "float32", "quantization": {"dtype": "uint8", "min": -0.4796750545501709, "scale": 0.0017568394833920049, "original_dtype": "float32"}}, {"name": "batch_normalization_85/moving_mean", "shape": [320], "dtype": "float32", "quantization": {"dtype": "uint8", "min": -0.0571187450020921, "scale": 0.0003482850305005616, "original_dtype": "float32"}}, {"name": "batch_normalization_85/moving_variance", "shape": [320], "dtype": "float32", "quantization": {"dtype": "uint8", "min": 0.012654760852456093, "scale": 1.1853092149192212e-05, "original_dtype": "float32"}}, {"name": "batch_normalization_86/beta", "shape": [384], "dtype": "float32", "quantization": {"dtype": "uint8", "min": -1.985308860797508, "scale": 0.009364664437724095, "original_dtype": "float32"}}, {"name": "batch_normalization_86/moving_mean", "shape": [384], "dtype": "float32", "quantization": {"dtype": "uint8", "min": -0.44152849602933025, "scale": 0.002025360073529038, "original_dtype": "float32"}}, {"name": "batch_normalization_86/moving_variance", "shape": [384], "dtype": "float32", "quantization": {"dtype": "uint8", "min": 0.033979639410972595, "scale": 0.003055860072958703, "original_dtype": "float32"}}, {"name": "batch_normalization_87/beta", "shape": [384], "dtype": "float32", "quantization": {"dtype": "uint8", "min": -0.35810020565986633, "scale": 0.0013321663307793, "original_dtype": "float32"}}, {"name": "batch_normalization_87/moving_mean", "shape": [384], "dtype": "float32", "quantization": {"dtype": "uint8", "min": 0.01131446659564972, "scale": 6.0683445018880506e-05, "original_dtype": "float32"}}, {"name": "batch_normalization_87/moving_variance", "shape": [384], "dtype": "float32", "quantization": {"dtype": "uint8", "min": 0.007144008297473192, "scale": 1.2075165104047925e-05, "original_dtype": "float32"}}, {"name": "batch_normalization_88/beta", "shape": [384], "dtype": "float32", "quantization": {"dtype": "uint8", "min": -0.2891800105571747, "scale": 0.0010556009105023216, "original_dtype": "float32"}}, {"name": "batch_normalization_88/moving_mean", "shape": [384], "dtype": "float32", "quantization": {"dtype": "uint8", "min": 0.010003654286265373, "scale": 7.18051604196137e-05, "original_dtype": "float32"}}, {"name": "batch_normalization_88/moving_variance", "shape": [384], "dtype": "float32", "quantization": {"dtype": "uint8", "min": 0.006972776260226965, "scale": 9.478838639516457e-06, "original_dtype": "float32"}}, {"name": "batch_normalization_89/beta", "shape": [448], "dtype": "float32", "quantization": {"dtype": "uint8", "min": -1.9113144348649416, "scale": 0.009101497308880675, "original_dtype": "float32"}}, {"name": "batch_normalization_89/moving_mean", "shape": [448], "dtype": "float32", "quantization": {"dtype": "uint8", "min": -0.6936964855474584, "scale": 0.009770373035879696, "original_dtype": "float32"}}, {"name": "batch_normalization_89/moving_variance", "shape": [448], "dtype": "float32", "quantization": {"dtype": "uint8", "min": 0.04891273006796837, "scale": 0.01249494285267942, "original_dtype": "float32"}}, {"name": "batch_normalization_9/beta", "shape": [96], "dtype": "float32", "quantization": {"dtype": "uint8", "min": -1.3923465532415054, "scale": 0.013135344841900994, "original_dtype": "float32"}}, {"name": "batch_normalization_9/moving_mean", "shape": [96], "dtype": "float32", "quantization": {"dtype": "uint8", "min": -3.2853801961038624, "scale": 0.020406088174558152, "original_dtype": "float32"}}, {"name": "batch_normalization_9/moving_variance", "shape": [96], "dtype": "float32", "quantization": {"dtype": "uint8", "min": 0.1636473834514618, "scale": 0.005362981557846069, "original_dtype": "float32"}}, {"name": "batch_normalization_90/beta", "shape": [384], "dtype": "float32", "quantization": {"dtype": "uint8", "min": -1.49708973940681, "scale": 0.016272714558769674, "original_dtype": "float32"}}, {"name": "batch_normalization_90/moving_mean", "shape": [384], "dtype": "float32", "quantization": {"dtype": "uint8", "min": -1.1765970116152482, "scale": 0.004861971122377059, "original_dtype": "float32"}}, {"name": "batch_normalization_90/moving_variance", "shape": [384], "dtype": "float32", "quantization": {"dtype": "uint8", "min": 0.04475320503115654, "scale": 0.008359990824086993, "original_dtype": "float32"}}, {"name": "batch_normalization_91/beta", "shape": [384], "dtype": "float32", "quantization": {"dtype": "uint8", "min": -0.40311026257627147, "scale": 0.0020359104170518763, "original_dtype": "float32"}}, {"name": "batch_normalization_91/moving_mean", "shape": [384], "dtype": "float32", "quantization": {"dtype": "uint8", "min": -0.014189518768997753, "scale": 0.00034608582363409153, "original_dtype": "float32"}}, {"name": "batch_normalization_91/moving_variance", "shape": [384], "dtype": "float32", "quantization": {"dtype": "uint8", "min": 0.016106564551591873, "scale": 4.118749616192837e-05, "original_dtype": "float32"}}, {"name": "batch_normalization_92/beta", "shape": [384], "dtype": "float32", "quantization": {"dtype": "uint8", "min": -0.4576899799755683, "scale": 0.001823466055679555, "original_dtype": "float32"}}, {"name": "batch_normalization_92/moving_mean", "shape": [384], "dtype": "float32", "quantization": {"dtype": "uint8", "min": -0.0010823348500564986, "scale": 0.00027058371251412465, "original_dtype": "float32"}}, {"name": "batch_normalization_92/moving_variance", "shape": [384], "dtype": "float32", "quantization": {"dtype": "uint8", "min": 0.01661667972803116, "scale": 3.857634523335625e-05, "original_dtype": "float32"}}, {"name": "batch_normalization_93/beta", "shape": [192], "dtype": "float32", "quantization": {"dtype": "uint8", "min": -0.2557861483272384, "scale": 0.0012725679021255642, "original_dtype": "float32"}}, {"name": "batch_normalization_93/moving_mean", "shape": [192], "dtype": "float32", "quantization": {"dtype": "uint8", "min": -0.08955161979093272, "scale": 0.0004455304467210583, "original_dtype": "float32"}}, {"name": "batch_normalization_93/moving_variance", "shape": [192], "dtype": "float32", "quantization": {"dtype": "uint8", "min": 0.010874890722334385, "scale": 7.845110753003289e-06, "original_dtype": "float32"}}, {"name": "conv2d/kernel", "shape": [3, 3, 3, 32], "dtype": "float32", "quantization": {"dtype": "uint8", "min": -0.7540165354223812, "scale": 0.006389970639172723, "original_dtype": "float32"}}, {"name": "conv2d_1/kernel", "shape": [3, 3, 32, 32], "dtype": "float32", "quantization": {"dtype": "uint8", "min": -0.9791056562872493, "scale": 0.007709493356592515, "original_dtype": "float32"}}, {"name": "conv2d_10/kernel", "shape": [3, 3, 96, 96], "dtype": "float32", "quantization": {"dtype": "uint8", "min": -0.28937112233218026, "scale": 0.00260694704803766, "original_dtype": "float32"}}, {"name": "conv2d_11/kernel", "shape": [1, 1, 192, 32], "dtype": "float32", "quantization": {"dtype": "uint8", "min": -0.6144754150334526, "scale": 0.003964357516344856, "original_dtype": "float32"}}, {"name": "conv2d_12/kernel", "shape": [1, 1, 256, 64], "dtype": "float32", "quantization": {"dtype": "uint8", "min": -0.618734900857888, "scale": 0.005380303485720765, "original_dtype": "float32"}}, {"name": "conv2d_13/kernel", "shape": [1, 1, 256, 48], "dtype": "float32", "quantization": {"dtype": "uint8", "min": -0.6957659090266508, "scale": 0.004216763085010005, "original_dtype": "float32"}}, {"name": "conv2d_14/kernel", "shape": [5, 5, 48, 64], "dtype": "float32", "quantization": {"dtype": "uint8", "min": -0.36720138051930595, "scale": 0.0033081205452189727, "original_dtype": "float32"}}, {"name": "conv2d_15/kernel", "shape": [1, 1, 256, 64], "dtype": "float32", "quantization": {"dtype": "uint8", "min": -0.3751896893276888, "scale": 0.002954249522265266, "original_dtype": "float32"}}, {"name": "conv2d_16/kernel", "shape": [3, 3, 64, 96], "dtype": "float32", "quantization": {"dtype": "uint8", "min": -0.35044706136572595, "scale": 0.002634940311020496, "original_dtype": "float32"}}, {"name": "conv2d_17/kernel", "shape": [3, 3, 96, 96], "dtype": "float32", "quantization": {"dtype": "uint8", "min": -0.30885000649620503, "scale": 0.002451190527747659, "original_dtype": "float32"}}, {"name": "conv2d_18/kernel", "shape": [1, 1, 256, 64], "dtype": "float32", "quantization": {"dtype": "uint8", "min": -0.5054193482679479, "scale": 0.0036891923231237075, "original_dtype": "float32"}}, {"name": "conv2d_19/kernel", "shape": [1, 1, 288, 64], "dtype": "float32", "quantization": {"dtype": "uint8", "min": -0.9325155019760132, "scale": 0.005792021751403809, "original_dtype": "float32"}}, {"name": "conv2d_2/kernel", "shape": [3, 3, 32, 64], "dtype": "float32", "quantization": {"dtype": "uint8", "min": -0.968023065959706, "scale": 0.006769392069648294, "original_dtype": "float32"}}, {"name": "conv2d_20/kernel", "shape": [1, 1, 288, 48], "dtype": "float32", "quantization": {"dtype": "uint8", "min": -0.3692158822919808, "scale": 0.0028401221714767755, "original_dtype": "float32"}}, {"name": "conv2d_21/kernel", "shape": [5, 5, 48, 64], "dtype": "float32", "quantization": {"dtype": "uint8", "min": -0.2808603065855363, "scale": 0.002283417126711677, "original_dtype": "float32"}}, {"name": "conv2d_22/kernel", "shape": [1, 1, 288, 64], "dtype": "float32", "quantization": {"dtype": "uint8", "min": -0.5608775148204729, "scale": 0.004835150989831663, "original_dtype": "float32"}}, {"name": "conv2d_23/kernel", "shape": [3, 3, 64, 96], "dtype": "float32", "quantization": {"dtype": "uint8", "min": -0.39353452780667475, "scale": 0.003199467705745323, "original_dtype": "float32"}}, {"name": "conv2d_24/kernel", "shape": [3, 3, 96, 96], "dtype": "float32", "quantization": {"dtype": "uint8", "min": -0.24962539181989782, "scale": 0.0026276357033673454, "original_dtype": "float32"}}, {"name": "conv2d_25/kernel", "shape": [1, 1, 288, 64], "dtype": "float32", "quantization": {"dtype": "uint8", "min": -0.39169669127931783, "scale": 0.004166986077439551, "original_dtype": "float32"}}, {"name": "conv2d_26/kernel", "shape": [3, 3, 288, 384], "dtype": "float32", "quantization": {"dtype": "uint8", "min": -0.17836814855828004, "scale": 0.0023782419807770673, "original_dtype": "float32"}}, {"name": "conv2d_27/kernel", "shape": [1, 1, 288, 64], "dtype": "float32", "quantization": {"dtype": "uint8", "min": -0.35701891955207377, "scale": 0.002975157662933948, "original_dtype": "float32"}}, {"name": "conv2d_28/kernel", "shape": [3, 3, 64, 96], "dtype": "float32", "quantization": {"dtype": "uint8", "min": -0.21576218160928462, "scale": 0.0021576218160928463, "original_dtype": "float32"}}, {"name": "conv2d_29/kernel", "shape": [3, 3, 96, 96], "dtype": "float32", "quantization": {"dtype": "uint8", "min": -0.13097442388534547, "scale": 0.0012840629792680927, "original_dtype": "float32"}}, {"name": "conv2d_3/kernel", "shape": [1, 1, 64, 80], "dtype": "float32", "quantization": {"dtype": "uint8", "min": -1.017077270676108, "scale": 0.00869296812543682, "original_dtype": "float32"}}, {"name": "conv2d_30/kernel", "shape": [1, 1, 768, 192], "dtype": "float32", "quantization": {"dtype": "uint8", "min": -0.633044653079089, "scale": 0.004689219652437696, "original_dtype": "float32"}}, {"name": "conv2d_31/kernel", "shape": [1, 1, 768, 128], "dtype": "float32", "quantization": {"dtype": "uint8", "min": -0.27582108764087454, "scale": 0.0029342668897965377, "original_dtype": "float32"}}, {"name": "conv2d_32/kernel", "shape": [1, 7, 128, 128], "dtype": "float32", "quantization": {"dtype": "uint8", "min": -0.37572916115031524, "scale": 0.003211360351712096, "original_dtype": "float32"}}, {"name": "conv2d_33/kernel", "shape": [7, 1, 128, 192], "dtype": "float32", "quantization": {"dtype": "uint8", "min": -0.283776236632291, "scale": 0.002556542672362982, "original_dtype": "float32"}}, {"name": "conv2d_34/kernel", "shape": [1, 1, 768, 128], "dtype": "float32", "quantization": {"dtype": "uint8", "min": -0.5268041000646703, "scale": 0.003512027333764469, "original_dtype": "float32"}}, {"name": "conv2d_35/kernel", "shape": [7, 1, 128, 128], "dtype": "float32", "quantization": {"dtype": "uint8", "min": -0.27942301069988923, "scale": 0.002822454653534235, "original_dtype": "float32"}}, {"name": "conv2d_36/kernel", "shape": [1, 7, 128, 128], "dtype": "float32", "quantization": {"dtype": "uint8", "min": -0.2969275058484545, "scale": 0.0025819783117256912, "original_dtype": "float32"}}, {"name": "conv2d_37/kernel", "shape": [7, 1, 128, 128], "dtype": "float32", "quantization": {"dtype": "uint8", "min": -0.24970125520930572, "scale": 0.0021903618878009274, "original_dtype": "float32"}}, {"name": "conv2d_38/kernel", "shape": [1, 7, 128, 192], "dtype": "float32", "quantization": {"dtype": "uint8", "min": -0.32480045977760763, "scale": 0.0024059293316859823, "original_dtype": "float32"}}, {"name": "conv2d_39/kernel", "shape": [1, 1, 768, 192], "dtype": "float32", "quantization": {"dtype": "uint8", "min": -0.5248880863189698, "scale": 0.003859471222933601, "original_dtype": "float32"}}, {"name": "conv2d_4/kernel", "shape": [3, 3, 80, 192], "dtype": "float32", "quantization": {"dtype": "uint8", "min": -0.5704377655889473, "scale": 0.005185797868990431, "original_dtype": "float32"}}, {"name": "conv2d_40/kernel", "shape": [1, 1, 768, 192], "dtype": "float32", "quantization": {"dtype": "uint8", "min": -0.4798133700501685, "scale": 0.0037485419535169414, "original_dtype": "float32"}}, {"name": "conv2d_41/kernel", "shape": [1, 1, 768, 160], "dtype": "float32", "quantization": {"dtype": "uint8", "min": -0.4703021743718316, "scale": 0.004019676704032749, "original_dtype": "float32"}}, {"name": "conv2d_42/kernel", "shape": [1, 7, 160, 160], "dtype": "float32", "quantization": {"dtype": "uint8", "min": -0.3012688182148279, "scale": 0.0027639341120626413, "original_dtype": "float32"}}, {"name": "conv2d_43/kernel", "shape": [7, 1, 160, 192], "dtype": "float32", "quantization": {"dtype": "uint8", "min": -0.30047753137700695, "scale": 0.0025903235463535083, "original_dtype": "float32"}}, {"name": "conv2d_44/kernel", "shape": [1, 1, 768, 160], "dtype": "float32", "quantization": {"dtype": "uint8", "min": -0.7475450431599336, "scale": 0.005416993066376331, "original_dtype": "float32"}}, {"name": "conv2d_45/kernel", "shape": [7, 1, 160, 160], "dtype": "float32", "quantization": {"dtype": "uint8", "min": -0.33310943491318645, "scale": 0.002775911957609887, "original_dtype": "float32"}}, {"name": "conv2d_46/kernel", "shape": [1, 7, 160, 160], "dtype": "float32", "quantization": {"dtype": "uint8", "min": -0.21915209515422, "scale": 0.002067472595794528, "original_dtype": "float32"}}, {"name": "conv2d_47/kernel", "shape": [7, 1, 160, 160], "dtype": "float32", "quantization": {"dtype": "uint8", "min": -0.20557252729640285, "scale": 0.002234483992352205, "original_dtype": "float32"}}, {"name": "conv2d_48/kernel", "shape": [1, 7, 160, 192], "dtype": "float32", "quantization": {"dtype": "uint8", "min": -0.286197807858972, "scale": 0.0024886765900780173, "original_dtype": "float32"}}, {"name": "conv2d_49/kernel", "shape": [1, 1, 768, 192], "dtype": "float32", "quantization": {"dtype": "uint8", "min": -0.5682091109892901, "scale": 0.003642366096085193, "original_dtype": "float32"}}, {"name": "conv2d_5/kernel", "shape": [1, 1, 192, 64], "dtype": "float32", "quantization": {"dtype": "uint8", "min": -0.6494503441978903, "scale": 0.0055987098637749165, "original_dtype": "float32"}}, {"name": "conv2d_50/kernel", "shape": [1, 1, 768, 192], "dtype": "float32", "quantization": {"dtype": "uint8", "min": -0.9820961840012494, "scale": 0.005845810619055056, "original_dtype": "float32"}}, {"name": "conv2d_51/kernel", "shape": [1, 1, 768, 160], "dtype": "float32", "quantization": {"dtype": "uint8", "min": -0.30974554454579073, "scale": 0.002458297972585641, "original_dtype": "float32"}}, {"name": "conv2d_52/kernel", "shape": [1, 7, 160, 160], "dtype": "float32", "quantization": {"dtype": "uint8", "min": -0.3386586606502533, "scale": 0.002845871097901288, "original_dtype": "float32"}}, {"name": "conv2d_53/kernel", "shape": [7, 1, 160, 192], "dtype": "float32", "quantization": {"dtype": "uint8", "min": -0.3592247205622056, "scale": 0.002529751553254969, "original_dtype": "float32"}}, {"name": "conv2d_54/kernel", "shape": [1, 1, 768, 160], "dtype": "float32", "quantization": {"dtype": "uint8", "min": -0.41714121898015344, "scale": 0.004907543752707687, "original_dtype": "float32"}}, {"name": "conv2d_55/kernel", "shape": [7, 1, 160, 160], "dtype": "float32", "quantization": {"dtype": "uint8", "min": -0.33365048438894984, "scale": 0.0029013085599039114, "original_dtype": "float32"}}, {"name": "conv2d_56/kernel", "shape": [1, 7, 160, 160], "dtype": "float32", "quantization": {"dtype": "uint8", "min": -0.25034230947494507, "scale": 0.0024543363674014223, "original_dtype": "float32"}}, {"name": "conv2d_57/kernel", "shape": [7, 1, 160, 160], "dtype": "float32", "quantization": {"dtype": "uint8", "min": -0.5321950947537142, "scale": 0.0035479672983580943, "original_dtype": "float32"}}, {"name": "conv2d_58/kernel", "shape": [1, 7, 160, 192], "dtype": "float32", "quantization": {"dtype": "uint8", "min": -0.45680019060770666, "scale": 0.0033588249309390197, "original_dtype": "float32"}}, {"name": "conv2d_59/kernel", "shape": [1, 1, 768, 192], "dtype": "float32", "quantization": {"dtype": "uint8", "min": -0.7049028599963468, "scale": 0.0038730926373425653, "original_dtype": "float32"}}, {"name": "conv2d_6/kernel", "shape": [1, 1, 192, 48], "dtype": "float32", "quantization": {"dtype": "uint8", "min": -0.6769842409620098, "scale": 0.005288939382515702, "original_dtype": "float32"}}, {"name": "conv2d_60/kernel", "shape": [1, 1, 768, 192], "dtype": "float32", "quantization": {"dtype": "uint8", "min": -0.8798087723114911, "scale": 0.005430918347601797, "original_dtype": "float32"}}, {"name": "conv2d_61/kernel", "shape": [1, 1, 768, 192], "dtype": "float32", "quantization": {"dtype": "uint8", "min": -0.42842321956858914, "scale": 0.004462741870506137, "original_dtype": "float32"}}, {"name": "conv2d_62/kernel", "shape": [1, 7, 192, 192], "dtype": "float32", "quantization": {"dtype": "uint8", "min": -0.2312893227034924, "scale": 0.004130166476848079, "original_dtype": "float32"}}, {"name": "conv2d_63/kernel", "shape": [7, 1, 192, 192], "dtype": "float32", "quantization": {"dtype": "uint8", "min": -0.4472619891166687, "scale": 0.0034142136573791504, "original_dtype": "float32"}}, {"name": "conv2d_64/kernel", "shape": [1, 1, 768, 192], "dtype": "float32", "quantization": {"dtype": "uint8", "min": -0.38161052640746623, "scale": 0.0029130574534921086, "original_dtype": "float32"}}, {"name": "conv2d_65/kernel", "shape": [7, 1, 192, 192], "dtype": "float32", "quantization": {"dtype": "uint8", "min": -0.1847128219464246, "scale": 0.0020523646882936067, "original_dtype": "float32"}}, {"name": "conv2d_66/kernel", "shape": [1, 7, 192, 192], "dtype": "float32", "quantization": {"dtype": "uint8", "min": -0.2186148177174961, "scale": 0.0019346444045796115, "original_dtype": "float32"}}, {"name": "conv2d_67/kernel", "shape": [7, 1, 192, 192], "dtype": "float32", "quantization": {"dtype": "uint8", "min": -0.154031145046739, "scale": 0.0015558701519872628, "original_dtype": "float32"}}, {"name": "conv2d_68/kernel", "shape": [1, 7, 192, 192], "dtype": "float32", "quantization": {"dtype": "uint8", "min": -0.15105457487059573, "scale": 0.0015900481565325867, "original_dtype": "float32"}}, {"name": "conv2d_69/kernel", "shape": [1, 1, 768, 192], "dtype": "float32", "quantization": {"dtype": "uint8", "min": -0.45422246315900017, "scale": 0.003291467124340581, "original_dtype": "float32"}}, {"name": "conv2d_7/kernel", "shape": [5, 5, 48, 64], "dtype": "float32", "quantization": {"dtype": "uint8", "min": -0.8901709654751946, "scale": 0.007808517241010479, "original_dtype": "float32"}}, {"name": "conv2d_70/kernel", "shape": [1, 1, 768, 192], "dtype": "float32", "quantization": {"dtype": "uint8", "min": -0.12102971287334666, "scale": 0.0012225223522560268, "original_dtype": "float32"}}, {"name": "conv2d_71/kernel", "shape": [3, 3, 192, 320], "dtype": "float32", "quantization": {"dtype": "uint8", "min": -0.09376242625362732, "scale": 0.000892975488129784, "original_dtype": "float32"}}, {"name": "conv2d_72/kernel", "shape": [1, 1, 768, 192], "dtype": "float32", "quantization": {"dtype": "uint8", "min": -0.2651587626513313, "scale": 0.0031566519363253726, "original_dtype": "float32"}}, {"name": "conv2d_73/kernel", "shape": [1, 7, 192, 192], "dtype": "float32", "quantization": {"dtype": "uint8", "min": -0.1457813553950366, "scale": 0.001472538943384208, "original_dtype": "float32"}}, {"name": "conv2d_74/kernel", "shape": [7, 1, 192, 192], "dtype": "float32", "quantization": {"dtype": "uint8", "min": -0.21740844226350972, "scale": 0.0017820364119959812, "original_dtype": "float32"}}, {"name": "conv2d_75/kernel", "shape": [3, 3, 192, 192], "dtype": "float32", "quantization": {"dtype": "uint8", "min": -0.31678827369914336, "scale": 0.0033346134073594037, "original_dtype": "float32"}}, {"name": "conv2d_76/kernel", "shape": [1, 1, 1280, 320], "dtype": "float32", "quantization": {"dtype": "uint8", "min": -0.27999171088723573, "scale": 0.0032182955274394913, "original_dtype": "float32"}}, {"name": "conv2d_77/kernel", "shape": [1, 1, 1280, 384], "dtype": "float32", "quantization": {"dtype": "uint8", "min": -0.2294891058814292, "scale": 0.0021054046411140294, "original_dtype": "float32"}}, {"name": "conv2d_78/kernel", "shape": [1, 3, 384, 384], "dtype": "float32", "quantization": {"dtype": "uint8", "min": -0.09723850617221758, "scale": 0.0009723850617221757, "original_dtype": "float32"}}, {"name": "conv2d_79/kernel", "shape": [3, 1, 384, 384], "dtype": "float32", "quantization": {"dtype": "uint8", "min": -0.12030376219281963, "scale": 0.0013076495890523873, "original_dtype": "float32"}}, {"name": "conv2d_8/kernel", "shape": [1, 1, 192, 64], "dtype": "float32", "quantization": {"dtype": "uint8", "min": -0.5078931775747562, "scale": 0.004163058832579968, "original_dtype": "float32"}}, {"name": "conv2d_80/kernel", "shape": [1, 1, 1280, 448], "dtype": "float32", "quantization": {"dtype": "uint8", "min": -0.36622070448071353, "scale": 0.004114839376187792, "original_dtype": "float32"}}, {"name": "conv2d_81/kernel", "shape": [3, 3, 448, 384], "dtype": "float32", "quantization": {"dtype": "uint8", "min": -0.21582431091981774, "scale": 0.0024525489877252017, "original_dtype": "float32"}}, {"name": "conv2d_82/kernel", "shape": [1, 3, 384, 384], "dtype": "float32", "quantization": {"dtype": "uint8", "min": -1.1950564678977518, "scale": 0.0069886343151915305, "original_dtype": "float32"}}, {"name": "conv2d_83/kernel", "shape": [3, 1, 384, 384], "dtype": "float32", "quantization": {"dtype": "uint8", "min": -0.2500087298598944, "scale": 0.0028410082938624365, "original_dtype": "float32"}}, {"name": "conv2d_84/kernel", "shape": [1, 1, 1280, 192], "dtype": "float32", "quantization": {"dtype": "uint8", "min": -0.29896767934163415, "scale": 0.002669354279836019, "original_dtype": "float32"}}, {"name": "conv2d_85/kernel", "shape": [1, 1, 2048, 320], "dtype": "float32", "quantization": {"dtype": "uint8", "min": -0.1505814704240537, "scale": 0.0017509473305122524, "original_dtype": "float32"}}, {"name": "conv2d_86/kernel", "shape": [1, 1, 2048, 384], "dtype": "float32", "quantization": {"dtype": "uint8", "min": -0.7721530409420239, "scale": 0.004679715399648629, "original_dtype": "float32"}}, {"name": "conv2d_87/kernel", "shape": [1, 3, 384, 384], "dtype": "float32", "quantization": {"dtype": "uint8", "min": -0.03838724546572741, "scale": 0.0009139820348982717, "original_dtype": "float32"}}, {"name": "conv2d_88/kernel", "shape": [3, 1, 384, 384], "dtype": "float32", "quantization": {"dtype": "uint8", "min": -0.04469847363584182, "scale": 0.000971705948605257, "original_dtype": "float32"}}, {"name": "conv2d_89/kernel", "shape": [1, 1, 2048, 448], "dtype": "float32", "quantization": {"dtype": "uint8", "min": -0.7784068072543424, "scale": 0.008024812445921056, "original_dtype": "float32"}}, {"name": "conv2d_9/kernel", "shape": [3, 3, 64, 96], "dtype": "float32", "quantization": {"dtype": "uint8", "min": -0.5199485477279214, "scale": 0.00403060889711567, "original_dtype": "float32"}}, {"name": "conv2d_90/kernel", "shape": [3, 3, 448, 384], "dtype": "float32", "quantization": {"dtype": "uint8", "min": -0.3196247418721517, "scale": 0.002350181925530527, "original_dtype": "float32"}}, {"name": "conv2d_91/kernel", "shape": [1, 3, 384, 384], "dtype": "float32", "quantization": {"dtype": "uint8", "min": -0.0919113493141006, "scale": 0.0009475396836505217, "original_dtype": "float32"}}, {"name": "conv2d_92/kernel", "shape": [3, 1, 384, 384], "dtype": "float32", "quantization": {"dtype": "uint8", "min": -0.06189327383158254, "scale": 0.0008038087510595134, "original_dtype": "float32"}}, {"name": "conv2d_93/kernel", "shape": [1, 1, 2048, 192], "dtype": "float32", "quantization": {"dtype": "uint8", "min": -0.3191213860231288, "scale": 0.0023815028807696176, "original_dtype": "float32"}}, {"name": "dense/kernel", "shape": [131072, 1024], "dtype": "float32", "quantization": {"dtype": "uint8", "min": -0.009626208757068596, "scale": 7.955544427329419e-05, "original_dtype": "float32"}}, {"name": "dense/bias", "shape": [1024], "dtype": "float32", "quantization": {"dtype": "uint8", "min": -0.0001546543903018841, "scale": 2.5353178738013788e-06, "original_dtype": "float32"}}, {"name": "dense_1/kernel", "shape": [1024, 512], "dtype": "float32", "quantization": {"dtype": "uint8", "min": -0.06382330287905301, "scale": 0.000506534149833754, "original_dtype": "float32"}}, {"name": "dense_1/bias", "shape": [512], "dtype": "float32", "quantization": {"dtype": "uint8", "min": -0.0003781068093125142, "scale": 4.155019882555101e-06, "original_dtype": "float32"}}, {"name": "dense_2/kernel", "shape": [512, 256], "dtype": "float32", "quantization": {"dtype": "uint8", "min": -0.09199364159037085, "scale": 0.0007243593826013453, "original_dtype": "float32"}}, {"name": "dense_2/bias", "shape": [256], "dtype": "float32", "quantization": {"dtype": "uint8", "min": -0.0008135894313454628, "scale": 9.57164036877015e-06, "original_dtype": "float32"}}, {"name": "dense_3/kernel", "shape": [256, 128], "dtype": "float32", "quantization": {"dtype": "uint8", "min": -0.13198044440325568, "scale": 0.0010392160976634307, "original_dtype": "float32"}}, {"name": "dense_3/bias", "shape": [128], "dtype": "float32", "quantization": {"dtype": "uint8", "min": -0.002832522252391951, "scale": 1.7927356027797158e-05, "original_dtype": "float32"}}, {"name": "dense_4/kernel", "shape": [128, 5], "dtype": "float32", "quantization": {"dtype": "uint8", "min": -0.22667617190117928, "scale": 0.0018134093752094343, "original_dtype": "float32"}}, {"name": "dense_4/bias", "shape": [5], "dtype": "float32", "quantization": {"dtype": "uint8", "min": -0.010962226439048262, "scale": 7.027068230159142e-05, "original_dtype": "float32"}}]}]}